results/model/best_model_ANN_ele_descriptor.pth (torch, 21611 bytes, 8 tensors)

fc1.weight f4 [64, 20]
0	0xbf0565ce	-0.52108467
1	0xbe24b325	-0.16083963
2	0xbcfb7086	-0.030693304
3	0x3e43c010	0.19116235
4	0xbd792eb7	-0.060835566
5	0x3d7c2dd1	0.06156713
6	0xbdf9779f	-0.12181019
7	0xbdb5daea	-0.08879645
8	0x3ec60efb	0.38683304
9	0xbe6e2c04	-0.23258978
10	0xbd277ed9	-0.040892456
11	0x3ee02f5c	0.43786132
12	0xbeac2054	-0.33618414
13	0xbefc1963	-0.4923812
14	0x3d15b106	0.036545776
15	0xbe8be220	-0.27320957
16	0x3ec470d1	0.38367322
17	0xbeb550fb	-0.35413346
18	0xbe856195	-0.26051012
19	0xbe618a04	-0.22025305
20	0xbe5d6209	-0.21619429
21	0xbeba0819	-0.36334303
22	0xbf0b0ac8	-0.54313326
23	0xbe15323a	-0.14569941
24	0x3ee37c21	0.4443064
25	0xbdda4599	-0.10657806
26	0x3e09e6a5	0.1346689
27	0x3ebfae25	0.3743755
28	0xbe21a876	-0.15786919
29	0x3e40e59e	0.18837592
30	0xbcf94bcd	-0.030431652
31	0x3e9cb6d3	0.30608234
32	0xbc564fbd	-0.0130805345
33	0xbe8bfe3f	-0.27342412
34	0x3e98f037	0.2987077
35	0xbe78550e	-0.24251196
36	0xbcea08b7	-0.028568609
37	0x3e150871	0.14554001
38	0xbd42d1c7	-0.04756334
39	0xbea0534b	-0.31313547
40	0x3eb5ae4b	0.35484537
41	0x3e14eb52	0.14542893
42	0x3cf57b2d	0.029965961
43	0x3e4722b1	0.19446827
44	0xbe763450	-0.24043393
45	0xbe1289e9	-0.14310421
46	0x3d9465ea	0.07246001
47	0xbe816a3a	-0.25276357
48	0xbeabd177	-0.33558246
49	0x3d063656	0.032766663
50	0xbdd69c67	-0.1047905
51	0x3e53ab2f	0.2067077
52	0xbeb54076	-0.35400742
53	0x3ebb5a6b	0.3659242
54	0xbb6b55b5	-0.003590924
55	0xbe9d9fb7	-0.30785915
56	0x3d41b962	0.047295935
57	0x3df9432f	0.121710174
58	0xbee41f64	-0.445552
59	0xbe389f95	-0.18029626
60	0xbd93ecec	-0.07222924
61	0xbae98a23	-0.0017817657
62	0x3d587ce9	0.0528535
63	0x3dc4f5bc	0.096171826
64	0x3d2b6ae4	0.041849986
65	0x3d0d3324	0.0344726
66	0x3ec8fa6b	0.39253554
67	0xbc5664ad	-0.013085526
68	0x3bb8072c	0.0056160893
69	0xbd6abb2f	-0.05730742
70	0x3dc56410	0.09638226
71	0x3d839895	0.06425587
72	0xbd064345	-0.032778997
73	0x3d4d7e2e	0.050169162
74	0xbcaa6a86	-0.020802747
75	0xbd94b3cf	-0.07260858
76	0xbe7dadbe	-0.24773309
77	0xbe4e9fc7	-0.20178138
78	0xbeb24d17	-0.3482444
79	0x3f2e1db4	0.68014073
80	0x3e86003a	0.26172048
81	0x3e5c6d9f	0.21526192
82	0x3ea89d9f	0.32932755
83	0xbe6612d7	-0.22468124
84	0x3da5bd1d	0.08092711
85	0xbe4e591b	-0.20151179
86	0xbec0a9cb	-0.37629542
87	0xbce63109	-0.028099554
88	0xbe46f5fc	-0.19429773
89	0x3e379918	0.17929494
90	0xbe7550db	-0.23956625
91	0xbc2c2e9b	-0.0105091585
92	0xbece98c5	-0.4035093
93	0x3ea84653	0.32866153
94	0x3e9b390c	0.3031696
95	0xbebc2dcc	-0.3675369
96	0x3d5ca8cb	0.05387191
97	0x3d096493	0.03354318
98	0x3dc75d30	0.09734571
99	0xbe35b4ff	-0.17744826
100	0xbe0850f7	-0.13312136
101	0xbe2c761e	-0.16841933
102	0x3d646d73	0.05576844
103	0x3ea46e32	0.32115322
104	0xbea7feaf	-0.32811496
105	0xbec1525d	-0.3775815
106	0x3f1b27e0	0.6060772
107	0x3d6f0477	0.058353867
108	0x3e84c6ff	0.25933072
109	0xbeb926e0	-0.36162472
110	0x3e4203db	0.18946783
111	0xbe8ace56	-0.27110547
112	0x3e95fe2b	0.29295477
113	0xbd0149ea	-0.03156463
114	0xbe83171f	-0.25603577
115	0x3eba7b06	0.36421984
116	0x3e29de23	0.16588645
117	0x3e0a4423	0.13502555
118	0x3e18cb08	0.149212
119	0x3ddeaaf1	0.10872448
120	0x3e9f7ce8	0.31149983
121	0x3e8f8dcf	0.2803788
122	0x3dcf4af5	0.10121719
123	0xbd84ef2c	-0.06490931
124	0xbce8c353	-0.02841345
125	0xbe95aed2	-0.2923494
126	0xbd78d071	-0.06074566
127	0xbe9e8099	-0.30957487
128	0xbe43fd6f	-0.19139646
129	0x3dcbfa72	0.09959878
130	0x3da213fa	0.079139665
131	0x3ea41e9f	0.32054612
132	0xbcd70938	-0.026249513
133	0xbee65851	-0.44989255
134	0x3e40b0c1	0.18817426
135	0xbd39bba1	-0.045344952
136	0x3e0864cc	0.13319701
137	0xbd91789b	-0.07103082
138	0xbd0973d9	-0.033557747
139	0x3e544036	0.2072762
140	0xbee82c6a	-0.45346385
141	0x3de190ce	0.110139474
142	0x3dced48b	0.10099133
143	0xbd97b924	-0.0740836
144	0xbd4e88f3	-0.050423574
145	0x3e2ef812	0.17086819
146	0xbc691d1a	-0.01422813
147	0x3e086ad6	0.13322005
148	0x3e903824	0.28167832
149	0x3d70feeb	0.05883686
150	0xbda3f940	-0.08006525
151	0xbe39537b	-0.18098252
152	0x3e889d7b	0.26682648
153	0xbcd252ae	-0.02567419
154	0xbd0c6e36	-0.034284793
155	0x3e66aa65	0.22525938
156	0x3f02d9cf	0.511136
157	0xbd070923	-0.032967698
158	0xbed255cf	-0.41081092
159	0xbe8cbd73	-0.27488288
160	0x3db1a6b4	0.08674374
161	0x3d4844ef	0.048893865
162	0x3e02aa07	0.12760173
163	0x3dd27cd0	0.10277712
164	0xbbfd3723	-0.00772752
165	0xbd917cea	-0.071039036
166	0xbd7dbff6	-0.061950646
167	0x3be50c86	0.0069900183
168	0x3de38c99	0.11110801
169	0xbd24b422	-0.04021085
170	0xbc09ccd9	-0.008410656
171	0xbcbbd0a1	-0.02292663
172	0x3e107139	0.14105691
173	0x3e0e0d98	0.13872373
174	0x3e5c0b26	0.21488628
175	0x3d3033b0	0.043018043
176	0xbd67a399	-0.056552503
177	0xbe555ac0	-0.208354
178	0x3f33e47a	0.702705
179	0xbe9e4a9c	-0.30916297
180	0x3e3e24f0	0.18568778
181	0xbdcaa741	-0.098951824
182	0x3e980493	0.2969099
183	0x3e3f5da8	0.18688071
184	0xbd17f5b9	-0.037099574
185	0xbd7a13f3	-0.06105418
186	0x3e3c9d4a	0.18419376
187	0xbe6dd3a2	-0.23225263
188	0xbe4a7607	-0.19771586
189	0xbc21c036	-0.009872487
190	0xbc762aec	-0.015024882
191	0xbe0e856b	-0.13918082
192	0x3e783572	0.24239138
193	0xbdb3fc5f	-0.0878837
194	0xbda4e9e4	-0.080524236
195	0xbe338a0c	-0.1753313
196	0xbdc2a21a	-0.09503575
197	0xbe5f400c	-0.21801776
198	0xbdeb2c3d	-0.11483047
199	0x3eb1bc00	0.34713745
200	0x3eafd87d	0.34344855
201	0xbe56649e	-0.2093682
202	0xbe19b031	-0.15008618
203	0xbe93c51e	-0.28861326
204	0x3e9f65c1	0.3113232
205	0xbb878fb8	-0.0041370057
206	0x3e4f3731	0.20235898
207	0x3d8e5186	0.06949143
208	0xbd901787	-0.070357375
209	0x3d13431f	0.035952684
210	0xbdcb2e10	-0.09920895
211	0xbe9f5a8b	-0.31123766
212	0x3e835ae8	0.25655293
213	0xbe81afd1	-0.2532945
214	0x3e0ed2d7	0.13947617
215	0x3e082b3e	0.13297746
216	0x3b253b18	0.0025212225
217	0x3db62052	0.08892883
218	0x3cc4b677	0.024012787
219	0xbdfa8dd6	-0.12234084
220	0x3c9af818	0.018917128
221	0x3ead5d02	0.33860022
222	0x3da48373	0.080328844
223	0x3df22e7f	0.11825275
224	0xbd6d790a	-0.05797676
225	0xbca4bd5d	-0.020109827
226	0xbdaf9cfb	-0.085748635
227	0xbd9d0840	-0.07667589
228	0xbe0e7c65	-0.1391464
229	0x3dd33b66	0.10314064
230	0xbdfd5969	-0.12370569
231	0x3d2fbf3c	0.042906985
232	0xbd8c8358	-0.06860989
233	0xbe3ef84d	-0.18649407
234	0xbcd7d7d5	-0.026348034
235	0xbe6ae2c6	-0.2293807
236	0xbe82a617	-0.25517341
237	0xbd2781a1	-0.040895108
238	0x3dafd3fe	0.08585356
239	0x3d8621e0	0.0654943
240	0x3ee33178	0.4437368
241	0xbea5c859	-0.32379416
242	0xbe909426	-0.28238028
243	0xbee9c4c8	-0.45657945
244	0x3f1e98fc	0.61952186
245	0xbd9c151f	-0.07621216
246	0xbee33926	-0.44379538
247	0x3e55794b	0.20847051
248	0x3cb11ba0	0.021619618
249	0x3e4cc024	0.19995171
250	0x3d61c670	0.055120885
251	0x3e866f85	0.26256958
252	0x3e789d85	0.24278839
253	0x3df4fb6b	0.11962017
254	0xbeb516c5	-0.35368934
255	0xbe5e0d8d	-0.21684857

fc1.bias f4 [64]
0	0xbe8a2c45	-0.269869
1	0xbdd78eca	-0.10525282
2	0xbdb6ffd1	-0.08935512
3	0x3d8bd92c	0.068285316
4	0xbe3276b0	-0.17428088
5	0xbe186af2	-0.14884546
6	0xbe50670b	-0.20351808
7	0xbd27eccf	-0.040997323
8	0xbb2ffe15	-0.0026854326
9	0xbca5c7e2	-0.020236913
10	0xbc60310b	-0.013683568
11	0xbd2a273e	-0.04154133
12	0xbcf95515	-0.030436078
13	0xbe738a85	-0.2378331
14	0x829fd158	-2.3483108e-37
15	0xbe1b82fe	-0.15186688
16	0x82b54ab0	-2.6638428e-37
17	0xbdbf0868	-0.09327775
18	0xbd51e7e1	-0.051246528
19	0x3d5aafa1	0.05339015
20	0xbe471643	-0.19442086
21	0xbd529232	-0.051408954
22	0xbe1bbf54	-0.15209705
23	0xbe474c0a	-0.194626
24	0x3d1dcf04	0.038527504
25	0xbd261109	-0.04054359
26	0xbc963664	-0.018336482
27	0xbe2238a3	-0.15841918
28	0xbe362fbb	-0.17791645
29	0x3ba6be58	0.0050886087
30	0xbdb98b3a	-0.090597585
31	0xbe3c204b	-0.18371694
32	0xbd840802	-0.0644684
33	0xbe024ef9	-0.12725438
34	0x3e0a2cdb	0.13493674
35	0x3d635421	0.055500153
36	0x3d2ceedd	0.042219985
37	0xbe1aaa62	-0.15104058
38	0x3dc05366	0.09390907
39	0xbd89f2aa	-0.067357376
40	0xbe0c801a	-0.13720742
41	0x3dd8e7e4	0.105911046
42	0xbdf54b3c	-0.119772404
43	0xbe49a006	-0.1968995
44	0xbd6dd85d	-0.05806767
45	0xbe387c83	-0.18016247
46	0xbdd8b6a3	-0.1058171
47	0xbdad33eb	-0.08457168
48	0x3b00b9c5	0.0019641977
49	0xbe5735b2	-0.21016577
50	0x3de2e404	0.11078647
51	0xbdf35912	-0.11882223
52	0xbe21cc61	-0.1580062
53	0x3c83b85d	0.016079122
54	0xbe6932c0	-0.22773266
55	0xbe2d8f5d	-0.1694922
56	0xbe4a416d	-0.1975152
57	0xbcf2be3a	-0.029631723
58	0x3e16eafa	0.14738074
59	0xbd9fce34	-0.07803002
60	0x3d4be140	0.049775362
61	0xbd93e371	-0.072211154
62	0xbb322c6e	-0.0027187127
63	0xbdcf1af4	-0.10112563

fc2.weight f4 [32, 64]
0	0x81918bf6	-5.346542e-38
1	0x032c1234	5.0567153e-37
2	0x950bef9a	-2.825984e-26
3	0xab767773	-8.7562526e-13
4	0x82047ac5	-9.733062e-38
5	0x82df2dc0	-3.2793164e-37
6	0x0333c55c	5.282993e-37
7	0x03451bb7	5.792491e-37
8	0x83311744	-5.2042333e-37
9	0x98de958f	-5.753667e-24
10	0x83099176	-4.0427662e-37
11	0x03533e57	6.207889e-37
12	0x9fa178e7	-6.838617e-20
13	0x9cebd265	-1.5605381e-21
14	0x82a83fa8	-2.4721918e-37
15	0x0353edda	6.2280367e-37
16	0x032bc9c6	5.048401e-37
17	0x013e7f9c	3.4989044e-38
18	0x9c57be2b	-7.138332e-22
19	0x82f6939c	-3.6231175e-37
20	0x82574fad	-1.5818571e-37
21	0x8a0a4bfd	-6.65875e-33
22	0x8240f18f	-1.4175256e-37
23	0x82eebce5	-3.5079377e-37
24	0x89358caa	-2.1853222e-33
25	0x0255107b	1.5653498e-37
26	0x826a4029	-1.7210018e-37
27	0x82935171	-2.1646454e-37
28	0x823dc192	-1.3941079e-37
29	0xa03d3f0c	-1.6029783e-19
30	0x82b09be4	-2.5950353e-37
31	0x02d3f03a	3.1141547e-37
32	0x0357b101	6.338601e-37
33	0x82d1bf8a	-3.0819728e-37
34	0xa78dce96	-3.9359343e-15
35	0x91ab23ae	-2.7001032e-28
36	0x829659c8	-2.209205e-37
37	0x862f7ff5	-3.300785e-35
38	0x0357d4b7	6.3427006e-37
39	0x8290a4a8	-2.1253406e-37
40	0x030cea9e	4.141163e-37
41	0x9bbfbe04	-3.1721094e-22
42	0x82d4c4b5	-3.1263505e-37
43	0x83168d38	-4.424315e-37
44	0x832ecc40	-5.136847e-37
45	0x83246dff	-4.8321538e-37
46	0x0246f78a	1.4617783e-37
47	0x83216fb8	-4.7441894e-37
48	0x8369db45	-6.8724255e-37
49	0x8292e1b4	-2.158232e-37
50	0xb07c2dac	-9.174197e-10
51	0x82fb9c6a	-3.6970913e-37
52	0x83130115	-4.320066e-37
53	0x81e09688	-8.2500606e-38
54	0x83504548	-6.1205237e-37
55	0x02a7afe6	2.4639405e-37
56	0x82985686	-2.2384055e-37
57	0x9ac8acdb	-8.2997324e-23
58	0xa4cc3876	-8.8566546e-17
59	0x0283b1ea	1.9350838e-37
60	0x0360f17d	6.61049e-37
61	0xa4692ce7	-5.0561855e-17
62	0x820ec6dc	-1.0489582e-37
63	0x0267c1e5	1.7026845e-37
64	0x3b4ac2de	0.0030938904
65	0xbe6cf1ae	-0.23139068
66	0x3dafc882	0.08583166
67	0xbba60e7f	-0.005067646
68	0xbc3278f7	-0.010893098
69	0x3f00d572	0.5032569
70	0xbed1e311	-0.4099355
71	0x3dc23809	0.09483344
72	0x3dbdb92f	0.092638366
73	0x3e916629	0.28398255
74	0x3cf91698	0.030406281
75	0xbe2cb38f	-0.16865371
76	0xbd77743f	-0.060413595
77	0xbf16647d	-0.5874708
78	0x03100b8d	4.2331056e-37
79	0x3cb2f40a	0.021844883
80	0x02aad67e	2.5102367e-37
81	0xbdd79bc6	-0.10527758
82	0x3c717f77	0.014739863
83	0xbe67eb2c	-0.22648305
84	0x3e319da4	0.17345291
85	0x3dddd255	0.10831133
86	0xbbc80926	-0.006104606
87	0x3c8936b0	0.01674971
88	0x3d658b44	0.056041017
89	0x3df5f682	0.12009908
90	0xbe82de22	-0.255601
91	0xbd31b398	-0.043384165
92	0xbeabf26e	-0.33583397
93	0xbe93b11e	-0.28846067
94	0xbd005986	-0.031335376
95	0xbe8e1080	-0.27746964
96	0xbe57a23c	-0.21057981
97	0x3ce7dbe7	0.0283031
98	0x3dd9f425	0.1064227
99	0xbf0fbf62	-0.561514
100	0xbe72697a	-0.23673049
101	0xbd87749d	-0.06614039
102	0x3d613d5f	0.05499017
103	0x3dc252ad	0.094884254
104	0x3e952e2c	0.2913679
105	0x3e834672	0.25639683
106	0xbce85cb1	-0.028364511
107	0xbccba649	-0.024859564
108	0x3d5de2b7	0.05417129
109	0x3e2fa203	0.17151646
110	0x3ea64fc7	0.3248274
111	0x3bcfcec3	0.0063417866
112	0x3ce58bd7	0.028020782
113	0xbb9b22dd	-0.0047343806
114	0x3c0dcd22	0.0086548645
115	0xbc7d4de7	-0.015460468
116	0xbe591fe9	-0.21203579
117	0xbc8b1594	-0.016978063
118	0x3d81c4a4	0.06336334
119	0x3bcfb728	0.0063389726
120	0xba7bdbcc	-0.00096076424
121	0x3db51bb9	0.08843178
122	0xbeb3e7e9	-0.3513787
123	0x3e0a2a21	0.13492633
124	0x3cb5a63d	0.022173995
125	0xbe1a668e	-0.15078184
126	0xbe9e2a2a	-0.30891544
127	0xbf182b5a	-0.5944115
128	0x82b9aa5e	-2.7281093e-37
129	0x829c7af0	-2.2992703e-37
130	0x82ae6af9	-2.5628401e-37
131	0x02a8057a	2.4688525e-37
132	0x82b2d496	-2.6276768e-37
133	0x82b34564	-2.6341514e-37
134	0x02ac8402	2.5348897e-37
135	0x82bac4b6	-2.744315e-37
136	0x82b31205	-2.6312029e-37
137	0x82b96bab	-2.7245105e-37
138	0x82b66f61	-2.6806425e-37
139	0x82cd0e3a	-3.0130208e-37
140	0x82ade6b3	-2.555248e-37
141	0x82bbb496	-2.7580832e-37
142	0x82c29914	-2.85936e-37
143	0x82a56c10	-2.4306596e-37
144	0x02c7b68d	2.93452e-37
145	0x82b7bd2c	-2.6998013e-37
146	0x82a9f80a	-2.4974686e-37
147	0x82c62b11	-2.9118204e-37
148	0x82c0bfe7	-2.832201e-37
149	0x82bbd86d	-2.7601403e-37
150	0x82a7a5b5	-2.4633556e-37
151	0x82b4e9af	-2.658275e-37
152	0x82bb7f55	-2.7550265e-37
153	0x02c30517	2.8655596e-37
154	0x02bff7bc	2.820712e-37
155	0x82b0a2ec	-2.5954388e-37
156	0x82a2e468	-2.393486e-37
157	0x029ef278	2.3355184e-37
158	0x82af79ed	-2.578392e-37
159	0x829b9040	-2.2857998e-37
160	0x82b39754	-2.6388544e-37
161	0x82b1ff7b	-2.615445e-37
162	0x82c63b88	-2.9127654e-37
163	0x82bb1f2c	-2.7495072e-37
164	0x82bc8f16	-2.7706245e-37
165	0x82abe543	-2.5257782e-37
166	0x82a28c4b	-2.3884285e-37
167	0x82ae002a	-2.5567096e-37
168	0x82a9ca92	-2.4948588e-37
169	0x82ac1778	-2.52866e-37
170	0x82b7aa7d	-2.6987289e-37
171	0x82b26a34	-2.6215707e-37
172	0x82a650fa	-2.4437986e-37
173	0x82bb783c	-2.7546192e-37
174	0x8317775e	-4.451194e-37
175	0x82b72613	-2.6911287e-37
176	0x82a3bf6a	-2.4060564e-37
177	0x82b06056	-2.591617e-37
178	0x82b0c2ce	-2.5972688e-37
179	0x82b383ec	-2.6377406e-37
180	0x829f38ca	-2.3395546e-37
181	0x82add47e	-2.554203e-37
182	0x82ac8872	-2.5351444e-37
183	0x82b2528f	-2.6202136e-37
184	0x023ebc58	1.4013047e-37
185	0x82aff86e	-2.585653e-37
186	0x82a3f4d2	-2.4091217e-37
187	0x02a15b3a	2.3709185e-37
188	0x82b13307	-2.60371e-37
189	0x82ad3c53	-2.545469e-37
190	0x02a9e93d	2.496619e-37
191	0x82b0927c	-2.5944954e-37
192	0xbeca050b	-0.39456972
193	0xbd6b201d	-0.057403672
194	0xbec88062	-0.39160448
195	0x3b992fb9	0.0046748784
196	0x3dafe502	0.08588602
197	0x3e93badc	0.288535
198	0xbcb59080	-0.02216363
199	0xbf0480f1	-0.5175925
200	0x3e754252	0.2395108
201	0xbe908445	-0.28225914
202	0xbd9afeec	-0.07568154
203	0x3e392027	0.18078671
204	0x3e26a6c7	0.16274558
205	0x3dc51c95	0.09624592
206	0x02a399ca	2.4038968e-37
207	0x3e6b2872	0.22964647
208	0x02bbe4cc	2.7608503e-37
209	0x3eb9cafa	0.3628767
210	0xbe15a3d5	-0.14613278
211	0xbea74898	-0.32672572
212	0x3f1798b4	0.5921738
213	0x3e8f8102	0.28028113
214	0xbf3aa8a2	-0.72913563
215	0xbe8f3bc8	-0.27975297
216	0xbed7e2b0	-0.42165136
217	0x3cbe160a	0.023203868
218	0xbce8fb22	-0.028440062
219	0xbe4c25db	-0.19936316
220	0xbc176d46	-0.009242361
221	0x3e6ae25f	0.22937916
222	0xbbecdd8a	-0.007228558
223	0xbcf9091e	-0.030399855
224	0xbd3a9c07	-0.045558956
225	0x3e2ee0ab	0.17077892
226	0xbe69ba94	-0.2282508
227	0xbe07392e	-0.13205406
228	0x3e317c5f	0.173326
229	0x3db1307d	0.086518265
230	0x3e21d06f	0.15802167
231	0xbe81acb0	-0.25327063
232	0xbe47d5b6	-0.19515118
233	0x3d3ddfd6	0.046356045
234	0x3e993177	0.2992055
235	0x3d6025f0	0.05472368
236	0x3e801d97	0.25022575
237	0xbde388f8	-0.11110109
238	0xbe15821c	-0.14600414
239	0xbe9e2fe8	-0.30895925
240	0x3cd68506	0.026186477
241	0x3cbb3a17	0.022854848
242	0x3d034f55	0.03205808
243	0x3e233933	0.15939789
244	0x3e2ffd76	0.17186531
245	0x3e0c120a	0.13678756
246	0x3e08d9a1	0.13364269
247	0x3da7f8a6	0.08201723
248	0xbdaa0ba0	-0.083029985
249	0xbe0c5de6	-0.13707694
250	0xbe8486da	-0.25884134
251	0x3eb47272	0.35243565
252	0xbd1d833e	-0.03845524
253	0xbe82e743	-0.25567064
254	0x3dd434f5	0.10361663
255	0xbd859a38	-0.065235555

fc2.bias f4 [32]
0	0xaf1d9297	-1.4331146e-10
1	0x3e1f50ab	0.15558116
2	0x82b4064f	-2.6452244e-37
3	0x3d5e3763	0.05425204
4	0x82b2c4bd	-2.6267672e-37
5	0xbe0cfa07	-0.13767253
6	0xbcbfaad7	-0.023396892
7	0xbd7f3869	-0.062309656
8	0x3df5b715	0.11997811
9	0x82a9fe2d	-2.4978208e-37
10	0x3e7c4d78	0.24638927
11	0x3ea6edb8	0.3260324
12	0x3da01412	0.07816328
13	0x3e137b36	0.1440247
14	0x3cb24770	0.02176258
15	0x3dbc531d	0.0919554
16	0x3e3c4e63	0.18389277
17	0xb9559254	-0.00020367774
18	0x3d05e53a	0.03268931
19	0xbdedff6d	-0.11620984
20	0x3e8031ba	0.25037938
21	0x3b53df33	0.0032329082
22	0x82b56cce	-2.665801e-37
23	0x829f84e2	-2.3439221e-37
24	0x3dfa1e6b	0.12212833
25	0xbd1a40d0	-0.037659466
26	0x3d8943db	0.067023955
27	0xbccbeed3	-0.024894154
28	0x3d0bc885	0.034126777
29	0x3d46576f	0.048423227
30	0xbe1f38fd	-0.15549083
31	0x99416411	-9.998074e-24

fc3.weight f4 [32, 32]
0	0x82f56c74	-3.6061764e-37
1	0x82c269af	-2.8566397e-37
2	0x819f8068	-5.859163e-38
3	0x019dc03d	5.794854e-38
4	0x02550d5e	1.5652605e-37
5	0x831a06fe	-4.526456e-37
6	0x82b5308c	-2.6623424e-37
7	0x82ad09f6	-2.5425783e-37
8	0x82a66cbc	-2.4453918e-37
9	0x81071f68	-2.4818117e-38
10	0x82b1012a	-2.600848e-37
11	0x82bb6570	-2.7535403e-37
12	0x82b12ebc	-2.6034637e-37
13	0x82b5d927	-2.67202e-37
14	0x82b5b397	-2.669864e-37
15	0x8259b98a	-1.5995889e-37
16	0x82b26b3c	-2.6216299e-37
17	0x82ab075b	-2.5130414e-37
18	0x82b86e17	-2.7099559e-37
19	0x82cda2e5	-3.021554e-37
20	0x82b267ac	-2.6214254e-37
21	0x82ae29fd	-2.5591102e-37
22	0x031f413d	4.680079e-37
23	0x832479d0	-4.8335102e-37
24	0x82ad061b	-2.542357e-37
25	0x82b3bbfa	-2.640958e-37
26	0x82ab6418	-2.5183643e-37
27	0x82b29c06	-2.6244302e-37
28	0x82c76990	-2.9301012e-37
29	0x82bba542	-2.7572034e-37
30	0x82bd64ef	-2.7828987e-37
31	0x82e6cfcd	-3.3914734e-37
32	0x02b4af08	2.6549086e-37
33	0x3ebb5499	0.3658798
34	0x83164256	-4.415719e-37
35	0xbe88125b	-0.26576504
36	0x02bfac94	2.8163983e-37
37	0xbde6e2d0	-0.1127373
38	0xbdbda841	-0.092606075
39	0x3e839af8	0.2570417
40	0xbc747b50	-0.014921978
41	0x82bbfbfb	-2.762181e-37
42	0xbed884e6	-0.42288893
43	0xbd715ac9	-0.05892447
44	0x3ed0de63	0.40794668
45	0x3e15b9f2	0.14621714
46	0xbe89d92e	-0.26923507
47	0x3dfc87c0	0.1233058
48	0xbe808652	-0.25102478
49	0x3ca1ab57	0.019735022
50	0xbe4796a9	-0.19491066
51	0x3e0da3aa	0.13831964
52	0x3cef3f2a	0.029204924
53	0xbe938edf	-0.2881994
54	0x034cb4d3	6.015779e-37
55	0x83430238	-5.7307897e-37
56	0xbdc4c77c	-0.09608361
57	0xbe523c63	-0.20530848
58	0xbe93eaba	-0.2889002
59	0x028009e5	1.8813589e-37
60	0x3bc2700f	0.0059337686
61	0xbde323da	-0.110908225
62	0xbcdc4bfa	-0.026891697
63	0x02a2cae6	2.3920219e-37
64	0x0291e8fa	2.1439557e-37
65	0xbdf5671d	-0.11982558
66	0x02b5c8b3	2.6710755e-37
67	0x3d028b1c	0.031870946
68	0x82b22530	-2.6176094e-37
69	0xbd39e117	-0.045380678
70	0xbe2cdbd0	-0.16880727
71	0x3e8597db	0.2609242
72	0xbda62a7d	-0.08113573
73	0x82b34c4a	-2.6345474e-37
74	0xbdbb23e2	-0.091377035
75	0x3e8cfc5d	0.27536288
76	0x3d59facd	0.053217698
77	0x3e61c672	0.22048357
78	0xbe35c8aa	-0.17752329
79	0x3daebc59	0.08532018
80	0xbc7b0720	-0.015321523
81	0x3dbf9153	0.0935389
82	0x3df31de1	0.11870933
83	0x3d329c9d	0.04360639
84	0x3e30a435	0.1725014
85	0x3e11fcf4	0.1425665
86	0x02b149c8	2.605016e-37
87	0x82c13b68	-2.8392899e-37
88	0xbe6ef15e	-0.23334262
89	0xbd1758ae	-0.036949806
90	0xbdf37cbb	-0.11889025
91	0xb99b40d1	-0.00029612196
92	0x3e64bf87	0.22338687
93	0xbd2247cc	-0.039619252
94	0xbe2326b0	-0.15932727
95	0x950b59ae	-2.814157e-26
96	0x81e6b1a6	-8.474357e-38
97	0x82af4201	-2.5751823e-37
98	0x82bcfa1b	-2.776767e-37
99	0x82a8e5fb	-2.4817384e-37
100	0x02a9662f	2.4890969e-37
101	0x027c258b	1.852481e-37
102	0x02e6c755	3.3909874e-37
103	0x82bb1fea	-2.7495498e-37
104	0x02b6b910	2.6848717e-37
105	0x82ba4eaa	-2.7375395e-37
106	0x82bd147f	-2.7782818e-37
107	0x82bb6586	-2.7535452e-37
108	0x02c82575	2.9408858e-37
109	0x82b36525	-2.635974e-37
110	0x82a4a18e	-2.4190362e-37
111	0x82b4e25a	-2.6578542e-37
112	0x82b40952	-2.6453972e-37
113	0x82b4bab9	-2.6555796e-37
114	0x82b7a47e	-2.6983847e-37
115	0x82c0ea8f	-2.8346494e-37
116	0x82c0cdc5	-2.832997e-37
117	0x82a91672	-2.4845201e-37
118	0x8299a774	-2.2577443e-37
119	0x02abdb40	2.5252035e-37
120	0x82a970d0	-2.489707e-37
121	0x82ad7e26	-2.549247e-37
122	0x82aafff4	-2.5126165e-37
123	0x82b029b3	-2.588481e-37
124	0x82a722c4	-2.45584e-37
125	0x82add9da	-2.5545106e-37
126	0x02881521	1.9995531e-37
127	0x01c1cc44	7.119011e-38
128	0x031f54ad	4.6823103e-37
129	0x82a50e42	-2.4252755e-37
130	0x035886d7	6.3631483e-37
131	0x02c4ad7f	2.8899193e-37
132	0x830776f3	-3.980948e-37
133	0x82ba5843	-2.7380903e-37
134	0x82aa5a0e	-2.5030944e-37
135	0x02b8bb3c	2.7143837e-37
136	0x82a56d55	-2.4307324e-37
137	0x810655cc	-2.467347e-38
138	0x82aec936	-2.5682492e-37
139	0x82ac0be8	-2.5279962e-37
140	0x82ae0676	-2.557071e-37
141	0x82a22d86	-2.382989e-37
142	0x82b6bff3	-2.685267e-37
143	0x82be3785	-2.7949857e-37
144	0x82a3c308	-2.406264e-37
145	0x82b19d38	-2.6098052e-37
146	0x82b21ce4	-2.6171332e-37
147	0x82a8dcb8	-2.4812068e-37
148	0x82a8d0bc	-2.480519e-37
149	0x02bbcbae	2.7594087e-37
150	0x82fda79e	-3.7271216e-37
151	0x03301b10	5.1752818e-37
152	0x82badb4e	-2.7456118e-37
153	0x82c0713f	-2.8276864e-37
154	0x82abc335	-2.5238235e-37
155	0x82a1635b	-2.371385e-37
156	0x82b1bd68	-2.6116526e-37
157	0x829e4cca	-2.3260088e-37
158	0x82a11ac5	-2.3672189e-37
159	0x83031019	-3.851592e-37
160	0x82a90dfd	-2.4840347e-37
161	0x3c3218ad	0.010870141
162	0x82a8c4aa	-2.479826e-37
163	0xbd07179b	-0.032981496
164	0x82a30272	-2.39521e-37
165	0xbd192d36	-0.037396632
166	0x3e3001d6	0.171882
167	0xbcbe55b5	-0.023234228
168	0x3d76200b	0.060089152
169	0x02b3d61c	2.6424579e-37
170	0x3d88fe13	0.06689086
171	0x3bf2fab1	0.0074151387
172	0x3e86e9b3	0.26350173
173	0xbe17c824	-0.14822441
174	0xbd491e78	-0.049101323
175	0x3d3cc165	0.046082873
176	0x3ecad74e	0.3961739
177	0x3ac7b082	0.0015235099
178	0xbe3889a9	-0.18021263
179	0xbdf783de	-0.120856985
180	0x3e8975a9	0.2684758
181	0x3da8ca15	0.08241669
182	0x82ba8006	-2.7403726e-37
183	0x02a0db76	2.3635851e-37
184	0xbe286ff2	-0.16448954
185	0x3bb8b8b8	0.0056372546
186	0xbe11f6e0	-0.14254332
187	0xbaca1b78	-0.0015419563
188	0xbcc07703	-0.02349425
189	0xbd922771	-0.07136429
190	0xbd1073d4	-0.035266712
191	0x1515e9da	3.0274787e-26
192	0x832792f2	-4.9245574e-37
193	0xbdc4f37d	-0.09616754
194	0x02b6343c	2.6772478e-37
195	0xbe523d89	-0.20531286
196	0x82a5cc67	-2.4361892e-37
197	0x3e07cd13	0.13261823
198	0x3db53de7	0.088496976
199	0xbcb38b39	-0.021916972
200	0x3db2998f	0.08720695
201	0x02bea0bf	2.8010255e-37
202	0xbe694333	-0.2277954
203	0x3c4df063	0.01256952
204	0x3d8b1c54	0.067925125
205	0x3c98ea5b	0.018666437
206	0xbcc934a5	-0.024561236
207	0xbd9685e7	-0.073497586
208	0xbdf57e6d	-0.119870044
209	0x3dd61352	0.10452904
210	0x3e21379c	0.1574387
211	0xbe2deec7	-0.16985618
212	0x3d9bd95e	0.07609819
213	0xbe8f731c	-0.2801751
214	0x02a7d4b8	2.466054e-37
215	0x02aaf051	2.511719e-37
216	0xbe9bf644	-0.30461323
217	0x3ddcec76	0.10787289
218	0xbdc69ad8	-0.09697503
219	0xb9c4d2a9	-0.00037540987
220	0x3eb1d477	0.3473241
221	0x3dc65624	0.09684399
222	0x3dd0c51f	0.10193848
223	0x82a52c25	-2.4269909e-37
224	0x027cfd47	1.8586723e-37
225	0xbd8f6aca	-0.0700279
226	0x82c5eca8	-2.9082382e-37
227	0xbd174c55	-0.03693803
228	0x82c99309	-2.961869e-37
229	0x829cd384	-2.3043544e-37
230	0xbca18d87	-0.019720806
231	0xbb863320	-0.00409545
232	0xbd2de0b5	-0.042450625
233	0x82c0a02c	-2.8303799e-37
234	0x3d19ac43	0.037517797
235	0xbd9b814f	-0.07593023
236	0xbd1bc564	-0.038030043
237	0xbe1030d8	-0.14081132
238	0x3ad26158	0.0016050739
239	0xbbde4836	-0.0067835106
240	0x3c970be8	0.018438295
241	0x3b88e581	0.0041777496
242	0xbae40902	-0.0017397704
243	0xbcc071c7	-0.023491753
244	0x3d06960d	0.032857943
245	0x3e8890ce	0.26672977
246	0x81041f58	-2.426706e-38
247	0x02b1abcb	2.6106417e-37
248	0x3c2b99da	0.010473693
249	0x3dc70daa	0.09719403
250	0xbba28b02	-0.0049604187
251	0x82b4c8c8	-2.6563866e-37
252	0xbda3bc6f	-0.07994925
253	0xbd141948	-0.036156923
254	0x828b4f5e	-2.0469769e-37
255	0x81ce4780	-7.5775046e-38

fc3.bias f4 [32]
0	0x82c37a1e	-2.8722767e-37
1	0xbd8c6fa8	-0.06857234
2	0x3e920441	0.2851887
3	0x82a920c2	-2.485112e-37
4	0x82b66b8c	-2.6804225e-37
5	0x3e288126	0.16455516
6	0x3e91fae7	0.28511736
7	0xbd9f7639	-0.07786221
8	0x82a912c3	-2.4843087e-37
9	0xbd0743cc	-0.03302364
10	0xbe4ded0d	-0.20109959
11	0x3e5c02c5	0.21485431
12	0x3de8505d	0.11343453
13	0x3e3a3251	0.18183257
14	0xbbabaa5e	-0.005238815
15	0xbdf7ffff	-0.12109374
16	0x82a3fd5c	-2.4096119e-37
17	0x82a9e435	-2.4963303e-37
18	0xbcffb009	-0.03121187
19	0xbe2d10f3	-0.16900997
20	0x3e0aab83	0.13541989
21	0x3e97b704	0.29631817
22	0x82bff717	-2.820675e-37
23	0x82a40468	-2.4100163e-37
24	0x82ad8c82	-2.5500713e-37
25	0xbb4b22d5	-0.0030996103
26	0x3e8f79c8	0.280226
27	0x3e7617ee	0.24032566
28	0x82bdc9b4	-2.7886826e-37
29	0x82b77bac	-2.6960417e-37
30	0x3e65e2db	0.2244982
31	0xbd280f6f	-0.041030344

fc4.weight f4 [5, 32]
0	0x82433e73	-1.434426e-37
1	0xbdabf69a	-0.08396645
2	0x3e9309ab	0.28718314
3	0x0df39bd5	1.5013546e-30
4	0x82a321ed	-2.397017e-37
5	0x3c023073	0.0079461215
6	0x3e2ca09e	0.16858146
7	0xbe380b07	-0.17972957
8	0x02b24a74	2.6197483e-37
9	0xbe1f1ff2	-0.1553953
10	0xbf334588	-0.7002797
11	0xbd9439f4	-0.07237616
12	0xbd91d453	-0.07120576
13	0xbcb79958	-0.022411987
14	0xbd6c12d8	-0.05763516
15	0x3d855c40	0.06511736
16	0x02a1e18c	2.3786281e-37
17	0x02c56da8	2.9009488e-37
18	0x3dd3b027	0.10336333
19	0xbdad1382	-0.084509864
20	0xbdd42730	-0.10359037
21	0x3bb9951e	0.005663528
22	0x02b1228e	2.6027646e-37
23	0x82b8c8c5	-2.7151606e-37
24	0x02bfbb0f	2.8172294e-37
25	0x3d1a1b9b	0.037623983
26	0x3cc2b65d	0.023768598
27	0x3d7398d8	0.059471935
28	0x82b68bb7	-2.6822689e-37
29	0x82c2f715	-2.8647556e-37
30	0x3e5e1cda	0.21690693
31	0xbe5bc403	-0.21461491
32	0x8216eaaf	-1.108761e-37
33	0xbcf75723	-0.030192917
34	0xbd57835f	-0.05261552
35	0x82ba40ba	-2.7367395e-37
36	0x02ac7dee	2.5345409e-37
37	0xbe60827e	-0.21924779
38	0xbbbe8ef5	-0.0058153816
39	0xbdecc4b1	-0.115609534
40	0x02b2e0dc	2.6283812e-37
41	0xbd21c039	-0.03948996
42	0x3d00aaed	0.031413008
43	0x3e9e10be	0.30872148
44	0x3d897531	0.067118056
45	0x3e04a80d	0.12954731
46	0x3e1d6ea9	0.15374245
47	0xbc870e20	-0.016486228
48	0x82b2dc5f	-2.6281236e-37
49	0x02bd9c49	2.7860757e-37
50	0xbd41cb3d	-0.047312964
51	0xbde97fb2	-0.11401309
52	0xbcebebc3	-0.028798943
53	0xbddbf573	-0.10740175
54	0x82a705e4	-2.4541826e-37
55	0x82ac453c	-2.5312867e-37
56	0x02b01a02	2.5875803e-37
57	0xbdbeb64c	-0.09312114
58	0x3ac7223f	0.0015192701
59	0x3de834ff	0.11338233
60	0x82bf9bba	-2.815431e-37
61	0x02c1cd14	2.847651e-37
62	0x3e3718e4	0.17880589
63	0xbd1e010c	-0.038575217
64	0x025e4cde	1.6332044e-37
65	0xbdc30f48	-0.09524399
66	0x3dae1bca	0.08501394
67	0x02bbe13c	2.7606459e-37
68	0x82b8b6f7	-2.7141387e-37
69	0x3e923309	0.28554562
70	0x3cf36b71	0.029714318
71	0x3c83106a	0.015999038
72	0x02a69e36	2.4482316e-37
73	0x3d50fc1f	0.05102169
74	0xbdf9b56b	-0.12192806
75	0x3e477bce	0.19480821
76	0x3e445be7	0.19175683
77	0xbcf35ec9	-0.029708283
78	0xbd108a04	-0.035287872
79	0x3e03814d	0.12842293
80	0x029fd59c	2.3485556e-37
81	0x02b1f782	2.6149875e-37
82	0xbe58c132	-0.21167448
83	0xbd693c8d	-0.05694251
84	0x3c53f3d0	0.012936547
85	0xbe84a4f8	-0.2590711
86	0x82bb20cf	-2.7496012e-37
87	0x02999c63	2.257109e-37
88	0x02a614a6	2.440336e-37
89	0x3dc87cae	0.09789406
90	0xbd8405dd	-0.06446431
91	0xbd63c3fe	-0.055606835
92	0x02d92cfc	3.1911104e-37
93	0x02ae84e4	2.5643278e-37
94	0x3e138b32	0.14408568
95	0x3ae8fee0	0.0017776154
96	0x01e10c7e	8.266987e-38
97	0x3c27e04e	0.0102463495
98	0x3de1d5ca	0.11027105
99	0x0814219d	4.457664e-34
100	0x02a9598a	2.488371e-37
101	0x3dc4ae44	0.09603551
102	0x3d136b15	0.035990793
103	0xbd1ff91b	-0.039055925
104	0x82c91b35	-2.9549912e-37
105	0x3c7d99ff	0.01547861
106	0xbe3c9867	-0.18417512
107	0x3d723451	0.059131924
108	0x3d62808b	0.05529837
109	0xbe00cc63	-0.12577967
110	0x3d70fb53	0.05883343
111	0xbea2e53d	-0.3181552
112	0x02a6c53e	2.450472e-37
113	0x82c68428	-2.916934e-37
114	0x3b2319e2	0.0024887254
115	0xbe864341	-0.26223186
116	0x3c18eed1	0.009334282
117	0xbd8bb166	-0.068209454
118	0x82b0570e	-2.5910843e-37
119	0x02aaa890	2.5076005e-37
120	0x82b3e948	-2.6435583e-37
121	0xbde3aba0	-0.11116719
122	0x3eb21e3b	0.3478869
123	0x3e82619c	0.25465095
124	0x82b057fe	-2.591138e-37
125	0x02bef7aa	2.8060143e-37
126	0xbe054a1c	-0.13016552
127	0x3cfd1f6e	0.030898776
128	0x83499049	-5.9234222e-37
129	0xbe9440d5	-0.28955713
130	0x3cab4d7e	0.020910975
131	0x0e4f291f	2.5534519e-30
132	0x82c50f48	-2.895532e-37
133	0xbbb84b16	-0.0056241853
134	0xbe25ceba	-0.16192141
135	0xbbb3b740	-0.0054844916
136	0x82ae0f34	-2.5575728e-37
137	0xbe403e9a	-0.1877388
138	0xbf0f3b21	-0.559496
139	0x3d16e280	0.0368371
140	0x3d9fbf9b	0.07800218
141	0xbe3613aa	-0.17780939
142	0xbdfb8431	-0.12281073
143	0x3d0e8b0e	0.03480058
144	0x82b51d2e	-2.6612308e-37
145	0x02da0990	3.203771e-37
146	0xbd75d37a	-0.060016133
147	0xbeaf7ed2	-0.34276444
148	0x3e782d26	0.24235973
149	0x3e86148d	0.26187554
150	0x02c2315a	2.8534064e-37
151	0x02bbb87f	2.7583076e-37
152	0x82ab66ac	-2.5185123e-37
153	0xbcc9a169	-0.0246131
154	0x3e35c8f6	0.17752442
155	0xbd51d5b9	-0.051229212
156	0x02b39c74	2.6391486e-37
157	0x82b1fb45	-2.6152034e-37
158	0x3df5bd59	0.11999006
159	0x3b824aac	0.0039761867

fc4.bias f4 [5]
0	0x3e963f00	0.2934494
1	0x3e2f8ae2	0.17142823
2	0x3e6f4e0d	0.23369618
3	0x3e8d9f55	0.27660623
4	0x3e4eca21	0.20194294
