results/model/best_model_ANN_mx_descriptor.pth (torch, 38881 bytes, 8 tensors)

fc1.weight f4 [64, 4]
000000 84 58 af 82 8e c7 21 02 0b 2f ae 82 17 dc 2f 83
       -2.5764744e-37 1.1885681e-37 -2.5594003e-37 -5.168053e-37
000010 87 ab 9e be 9e 53 c9 be 08 e3 78 3e 7e 92 8b bd
       -0.3099024 -0.39321607 0.24305356 -0.068150505
000020 30 58 b7 3e e7 47 7c 3e 69 b4 48 3d 95 4a 64 bd
       0.3580947 0.24636804 0.049000178 -0.05573519
000030 7c 9d bd be 7f 08 de 3e 10 48 4d 3e f0 9d bf bd
       -0.37034214 0.43365857 0.20047021 -0.09356296
000040 79 ae a5 82 19 0d ad 82 a3 81 c0 82 02 f1 ba 82
       -2.4344713e-37 -2.5427583e-37 -2.8286272e-37 -2.7468575e-37
000050 b7 aa a2 82 26 43 b6 82 5c f3 b8 82 30 a2 a9 82
       -2.3901746e-37 -2.6781038e-37 -2.7176051e-37 -2.492541e-37
000060 c9 77 ee 3c 2f c6 c2 be 2d d8 d5 bd f7 4f 5c be
       0.029109852 -0.38041827 -0.10441623 -0.21514879
000070 0d 91 cc bd 30 7b 8b be 82 e2 a6 bd f1 49 8a bc
       -0.09988604 -0.27242422 -0.08148672 -0.016880961
000080 df 98 27 be 89 87 2c 3f af a2 93 bd b8 99 be bc
       -0.1636691 0.6739431 -0.07208764 -0.023266658
000090 b3 da 26 bd 33 de 8b be 8c 45 e5 3e 9c eb b0 be
       -0.04073591 -0.27317962 0.44779623 -0.34554756
0000a0 20 a7 12 be ed ad 4e bd f1 2f 69 3d 22 25 71 3e
       -0.14321566 -0.050458837 0.056930486 0.23549321
0000b0 04 54 96 3e b3 fd 5e bf 6f ae 0c bf 95 31 64 3e
       0.29360974 -0.87105864 -0.54953665 0.22284539
0000c0 31 e4 bf bd c2 a1 07 be 54 5c 40 be 09 f7 4d be
       -0.09369696 -0.132453 -0.1878522 -0.20113768
0000d0 37 54 bb 82 3e d1 b2 82 9e 96 9e 82 5a de ad 82
       -2.7525517e-37 -2.6274848e-37 -2.3302463e-37 -2.5547689e-37
0000e0 88 96 ae 3e e7 38 99 bd 1c 0a 9b be e3 ec 83 be
       0.3409922 -0.074815564 -0.3028115 -0.25766668
0000f0 30 c2 af 82 f0 86 52 01 ca f8 ab 82 5c f6 ab 82
       -2.5825397e-37 3.866772e-38 -2.526899e-37 -2.5267595e-37
000100 76 68 42 bd d9 d9 86 bb f8 9f c6 3d fd 9e f3 3e
       -0.047462903 -0.004115325 0.0969848 0.47582236
000110 75 7d 25 3e 03 8b 54 be d8 67 37 bd 40 4d 40 3d
       0.1616114 -0.20756154 -0.044776767 0.04694867
000120 e0 01 68 be 79 94 c3 3c ba 5e d4 3c d9 0f b3 3e
       -0.22656965 0.023874508 0.025924075 0.34973028
000130 b6 44 82 be 91 d9 f2 3e a4 0b fd 3e f1 9b 13 3c
       -0.25443047 0.47431615 0.49422944 0.009009347
000140 f3 36 37 be 73 c0 ea 3e 15 7f 83 be 56 ca 87 3e
       -0.17892055 0.45849952 -0.25682893 0.26521558
000150 d2 52 52 bf 71 6f 27 bf 66 01 a8 3d b6 10 74 3d
       -0.82157624 -0.6540442 0.08203392 0.05958625
000160 35 a8 34 bd c2 39 0c bd 9c d5 e8 3c 8f ea ee bc
       -0.044105727 -0.03423477 0.02842217 -0.02916458
000170 54 b6 ab be 99 97 26 3d c0 55 8c 3a 72 e0 01 bf
       -0.33537543 0.04067192 0.0010706708 -0.507331
000180 a1 b7 0f be 6a 2a 20 3d 76 22 30 be 96 70 34 be
       -0.14034893 0.03910295 -0.17200646 -0.17621073
000190 11 69 b8 3d 18 90 18 3f d5 18 4a bd 56 f5 6b bf
       0.09004415 0.5959487 -0.049340088 -0.9217123
0001a0 7d c5 dd bc 50 31 74 3c b5 44 a4 bd 0f cb 37 3f
       -0.027071709 0.014904335 -0.08020917 0.7179422
0001b0 db 1b 54 3c 91 04 52 3e 74 32 96 be 11 74 a7 3e
       0.012946094 0.20509554 -0.29335368 0.3270574
0001c0 48 cd bb 3d b7 6e 37 be 31 49 30 be e4 13 58 be
       0.09170014 -0.17913328 -0.1721542 -0.21101338
0001d0 19 ce a0 82 18 fd b9 02 34 60 b2 82 f4 99 ac 82
       -2.3628181e-37 2.7328576e-37 -2.6209967e-37 -2.5361493e-37
0001e0 d7 97 66 3e 17 c4 5f bf 07 5a 9b bc d0 65 a0 3d
       0.2251886 -0.87408584 -0.018963827 0.07831919
0001f0 a5 44 b2 bc 76 16 18 3e 68 76 00 bf 6a 71 06 3f
       -0.021761248 0.14852318 -0.50180674 0.52516806
000200 5d c0 93 be 34 fa 8d 3d 4c 2e d1 bc d8 11 4a bd
       -0.288577 0.06932488 -0.025534771 -0.049333423
000210 2e 22 7c 3b 83 6e 16 bd 8d 98 42 3e 45 4b 23 3e
       0.003847252 -0.036726486 0.19003506 0.15946682
000220 dd 44 8b bd f9 c5 92 be 03 ae 7a be ec 9b 31 bc
       -0.06800244 -0.28666666 -0.24480443 -0.010840397
000230 9b 6a bc 82 af a0 a8 82 63 d7 ab 82 95 4c ad 82
       -2.7685306e-37 -2.477761e-37 -2.5249818e-37 -2.5464021e-37
000240 ea 6a 69 3e 15 0b 01 bf c7 a6 f9 be 78 3a 19 bf
       0.2279469 -0.50407535 -0.48760054 -0.5985484
000250 ae 45 94 bd 77 3e b2 be 68 cc fa bd 8c 99 97 bb
       -0.07239853 -0.34813282 -0.12246019 -0.0046264585
000260 8d 23 82 ba d3 49 13 39 cc 7d 29 bb 8d 74 0f bb
       -0.0009928808 0.00014046514 -0.0025862334 -0.0021889538
000270 7d a3 fa 3d 6c de 23 3f 2c aa c0 be 64 b2 8b 3c
       0.12238214 0.64011264 -0.3762983 0.017052837
000280 3e c0 db 3e d6 5b f8 be f8 23 0c be ef f4 52 be
       0.42920107 -0.48507565 -0.13685596 -0.20601247
000290 0e 1f 10 bf e0 7a f4 3e 38 ca 87 be 96 d1 30 3d
       -0.56297386 0.47749996 -0.26521468 0.043168627
0002a0 97 f7 c8 82 b9 3a ac 02 6e ff b3 82 3d d4 b2 82
       -2.9529468e-37 2.5306834e-37 -2.6448296e-37 -2.6276568e-37
0002b0 dc 08 ec 3d b5 45 15 bf 01 4a 9d bf 2d 4b 8b 3e
       0.11525127 -0.5830949 -1.2288209 0.27205792
0002c0 dd 6b 0c be b0 7e 03 3f fa e8 49 bf 19 73 0f 3d
       -0.13713022 0.51365185 -0.7887112 0.035021875
0002d0 b5 5b aa bd 3f 72 a0 3e 63 44 de 3b d2 e7 89 be
       -0.08318273 0.31337163 0.0067830547 -0.26934677
0002e0 ba 44 b3 3d a5 57 b0 be 20 a3 85 3e f5 d0 2b bf
       0.08753343 -0.34441867 0.26101017 -0.6711572
0002f0 e0 79 05 3e 4b ee a4 3e 49 fb fc be bb df 65 be
       0.13034773 0.32213053 -0.49410465 -0.22448628
000300 71 9f 34 be f1 34 f4 3e c6 4f f8 bd 81 e2 3a be
       -0.17638947 0.4769664 -0.121245906 -0.18250467
000310 60 3b 1f be eb 17 57 3f b8 d8 3e be 06 e6 a1 bc
       -0.15549994 0.8402087 -0.18637359 -0.019763004
000320 2c 13 59 bd d5 bf 44 bf e0 82 cd 3e d0 d7 10 bc
       -0.0529968 -0.7685521 0.40138912 -0.008840516
000330 b2 d3 9d 82 21 e1 95 02 36 51 91 82 d0 09 b8 82
       -2.3190584e-37 2.20228e-37 -2.1352448e-37 -2.7042002e-37
000340 7b e8 e3 be a5 63 0b 3d c3 0f 15 3f b6 ac 55 3c
       -0.44513306 0.034030575 0.58227175 0.013041666
000350 3f 58 81 be ba 84 ce bd 12 2c b3 3e 1e 9c 00 bf
       -0.2526264 -0.10083909 0.3499456 -0.50238216
000360 d4 35 5c be 21 5f 57 3e b9 8a 91 bd fc a7 e8 3e
       -0.21504909 0.21032383 -0.07106537 0.45440662
000370 6b d3 cf 3e 19 ab 82 3c d7 80 77 bc 9e 16 07 bc
       0.40590987 0.015950726 -0.015106401 -0.008245138
000380 22 d6 ad 3d 53 27 23 3f 0e 63 f3 be 9a f5 4a be
       0.08488108 0.6373188 -0.4753651 -0.19820252
000390 7f 27 e7 3d 4f 12 98 be bd 7c cc be 66 4d a6 bd
       0.1128683 -0.29701468 -0.39938918 -0.08120231
0003a0 8d 13 4f b8 0d cd 46 28 cf f1 62 af b1 cd 3e a5
       -4.9370854e-05 1.1035671e-14 -2.0640488e-10 -1.6549564e-16
0003b0 06 32 40 3e 6a 2e 84 3e 5c 02 eb bd 2d 2f be 3c
       0.18769082 0.2581666 -0.114750594 0.023215855
0003c0 2e 0b 9c be c6 d8 fb 3d 9d 3c 4f bf 66 77 a9 3c
       -0.3047728 0.122972056 -0.80951864 0.020686816
0003d0 13 73 0c bf 92 3d 17 3e 90 b9 3d 3e f5 06 03 3d
       -0.5486309 0.14769581 0.18527818 0.031989057
0003e0 04 67 b4 82 6a 00 9e 82 5c 82 b2 82 1a 97 b9 01
       -2.650775e-37 -2.321625e-37 -2.6229572e-37 6.817509e-38
0003f0 bd 27 c3 be 9f 92 de bd 11 92 0a bf 9d 36 03 3f
       -0.38116255 -0.108678095 -0.5412913 0.5125521

fc1.bias f4 [64]
000000 ff d8 b5 82 44 ee 8b 3e 37 68 93 bf d2 36 db be
       -2.672011e-37 0.2733022 -1.1516179 -0.42815262
000010 68 aa ad 82 20 68 98 82 96 94 29 3f 8c 89 9b 3f
       -2.5517874e-37 -2.2394157e-37 0.6624235 1.2151351
000020 5a b7 35 3f 7e 87 43 be 8f 10 18 bf 86 bd a6 be
       0.709829 -0.19094655 -0.59400266 -0.3256647
000030 e7 7a 25 3f 25 19 b1 82 5d ff 7c bf 66 e8 b0 82
       0.6464066 -2.6022245e-37 -0.98827153 -2.5994266e-37
000040 60 39 3a bf f3 09 79 bf cb 19 04 bf 22 2d 4a bc
       -0.727438 -0.97280806 -0.51601857 -0.012339862
000050 eb de d6 be ef 48 4c 3f da ff f1 bd f8 51 25 3f
       -0.41966948 0.7979879 -0.11816378 0.645782
000060 23 be 09 3f b3 e2 c2 be 32 fd 28 bf c2 81 e6 be
       0.5380575 -0.38063583 -0.66011345 -0.45020872
000070 c0 20 27 bf 40 02 bb 82 e1 6f 21 bf cb 8f 9d 3e
       -0.6528435 -2.7478472e-37 -0.6306134 0.30773768
000080 91 e7 66 3f 57 6c e1 be f3 ea 54 3f 5e 07 b7 82
       0.9019709 -0.4402797 0.83171004 -2.6893662e-37
000090 c2 2d 80 3d 97 75 33 3f 00 4e ce ba b5 b9 29 3e
       0.062587276 0.701013 -0.0015739799 0.16574748
0000a0 e8 ba 53 bf 19 ba fe 3e a8 7d b5 82 be cc b2 be
       -0.8270707 0.49751356 -2.6667683e-37 -0.3492183
0000b0 80 a1 83 3e 00 a4 81 3f 57 4b c8 be f4 4c a0 3e
       0.25709152 1.0128174 -0.3911998 0.3130871
0000c0 49 03 64 bc e4 61 f0 3e 79 95 69 bf 08 d6 9b 82
       -0.013916799 0.46949685 -0.912437 -2.289805e-37
0000d0 ab 31 15 bf 78 0a a0 be 10 08 10 3e 64 f6 91 bf
       -0.5827891 -0.31257987 0.14065576 -1.1403317
0000e0 46 37 85 be 0c 56 3f 3f 11 1b 0a ab b4 ca 87 bf
       -0.26018733 0.7474067 -4.906501e-13 -1.0608735
0000f0 85 b1 6c 3f 80 7a 29 3f 53 11 ac 82 97 13 46 3e
       0.92458373 0.66202545 -2.5283072e-37 0.1934341

fc2.weight f4 [64, 64]
000000 da 8e 4e 03 f6 bc c7 82 b2 ee bb 82 2a 07 2b 03
       6.0701945e-37 -2.934888e-37 -2.7614185e-37 5.0260607e-37
000010 a6 69 ec 01 38 4e c2 82 32 16 b0 82 4f cb af 82
       8.6844306e-38 -2.8550633e-37 -2.5873615e-37 -2.5830632e-37
000020 ec 9f b1 82 c1 a7 c3 82 f8 92 b7 82 41 93 be 82
       -2.6099603e-37 -2.874896e-37 -2.697379e-37 -2.800251e-37
000030 50 a6 ab 02 2e 32 af 02 5e 02 a2 82 f7 f9 c7 82
       2.522165e-37 2.574274e-37 -2.380512e-37 -2.9383895e-37
000040 69 4d cb 82 b2 fd ae 82 5b aa ba 82 cc 94 ac 02
       -2.98726e-37 -2.5712616e-37 -2.7428023e-37 2.5358534e-37
000050 7d e3 aa 82 8c 5d b2 82 53 d5 a5 82 f1 eb 0f 02
       -2.5109827e-37 -2.6208443e-37 -2.4367013e-37 1.0573693e-37
000060 3f c3 bc 82 f8 dc 16 83 6b ee bc 82 b6 89 ae 82
       -2.7736183e-37 -4.43347e-37 -2.7760962e-37 -2.5646044e-37
000070 2e c9 a4 82 25 a0 a7 82 82 3e b5 82 69 1c b6 82
       -2.4213106e-37 -2.4630363e-37 -2.6631437e-37 -2.6758803e-37
000080 76 04 ab 82 f2 c2 a9 82 ec 8d bf 82 71 ed d6 01
       -2.5128752e-37 -2.4944211e-37 -2.8146387e-37 7.8951896e-38
000090 76 bd c2 82 6a 99 bd 82 50 56 a1 82 f5 0b ad 82
       -2.8614483e-37 -2.785911e-37 -2.3706365e-37 -2.5426928e-37
0000a0 c6 45 af 82 c0 56 a6 82 f8 a2 ca 02 82 77 bd 82
       -2.5753987e-37 -2.44413e-37 2.9774772e-37 -2.7839648e-37
0000b0 01 28 b3 82 9e 85 a7 82 63 74 b4 82 9e 6b ac 82
       -2.6324647e-37 -2.4615137e-37 -2.6515426e-37 -2.5334898e-37
0000c0 6a e1 bc 82 44 a7 ba 82 92 29 ae 82 24 3d b9 82
       -2.7753499e-37 -2.742625e-37 -2.5590862e-37 -2.72184e-37
0000d0 6c 11 ae 02 08 1a a1 02 a3 82 ad 82 a4 ab b2 82
       2.5577002e-37 2.3671765e-37 -2.5495047e-37 -2.6253266e-37
0000e0 0a 22 b9 82 1a f3 b8 82 af 71 b3 82 81 2e b1 82
       -2.7202844e-37 -2.7175904e-37 -2.6366937e-37 -2.6034504e-37
0000f0 b1 ca a5 82 a0 2b b2 82 6a 1f 15 83 a5 ca b3 82
       -2.436091e-37 -2.6179789e-37 -4.3823226e-37 -2.6417998e-37
000100 80 38 9d 02 0e 46 0b bc 05 8b 42 be ec fa ed 3d
       2.3101506e-37 -0.008500589 -0.18998344 0.11620125
000110 e0 98 a1 82 3a 6d 5d 02 80 e7 2b 39 e9 d4 a2 3b
       -2.374457e-37 1.6267862e-37 0.00016394071 0.0049692285
000120 d5 c5 8e be 1a 58 33 3e 2c bd d8 bd 67 96 97 3d
       -0.2788531 0.17514077 -0.10582957 0.07401734
000130 6e 6f aa bd 59 85 b8 02 9d a4 66 bd 68 5f fb 80
       -0.08322035 2.7112908e-37 -0.05630933 -2.3084935e-38
000140 42 d3 9d 3e bb 21 9d 3d 7a 3a 86 bd e5 8f 87 be
       0.3082524 0.07672449 -0.06554122 -0.2647697
000150 c8 d5 f8 ba ed ae 84 3e cf 08 f1 b8 aa d9 71 3d
       -0.001898461 0.25914708 -0.00011493416 0.05904547
000160 eb 63 e8 bc d1 33 61 be bf af 80 3e 84 1f f2 3d
       -0.028367957 -0.21992423 0.25134084 0.118224174
000170 94 14 af 02 f0 fd a9 02 de ef 9c 3d d1 3d c4 3d
       2.572575e-37 2.4978071e-37 0.076629385 0.09582103
000180 87 0b 4a bc 67 6f a6 3c cb bf 96 3d 08 7b af 02
       -0.01233185 0.020316793 0.073608 2.5784555e-37
000190 5f 0f be 3b 36 2a 81 bd 94 2a d8 39 a6 70 ae be
       0.005800172 -0.06306879 0.00041230454 -0.3407032
0001a0 7d 5e d1 bc 94 08 10 bd b6 eb ae 02 b0 10 90 be
       -0.02555775 -0.03516443 2.5702294e-37 -0.28137732
0001b0 e7 be 11 bc 86 02 4c bd 19 3c af 3e 29 e3 75 be
       -0.008895612 -0.049807094 0.34225538 -0.24012436
0001c0 e4 52 af 02 eb 59 b6 bd 8f 2e 28 3e e7 09 ca 02
       2.5761516e-37 -0.08903869 0.1642401 2.9686916e-37
0001d0 78 ec 15 be e7 d5 36 3e 91 4f 93 be 99 45 a0 bd
       -0.14640987 0.17855035 -0.28771642 -0.07825775
0001e0 21 a1 ae 82 9d 77 48 3d f4 c9 b6 02 b3 d9 a9 be
       -2.5659486e-37 0.048942197 2.6858412e-37 -0.33173904
0001f0 f1 59 2e be e5 9b 60 bd 78 7e 32 01 2e 60 0b 3d
       -0.17026497 -0.054836173 3.2784174e-38 0.03402727
000200 c0 22 a8 82 51 ac 02 be 7e 2b 7f be 6e 6a a7 bb
       -2.4705327e-37 -0.12761046 -0.24918935 -0.005109123
000210 d7 22 b1 02 d9 1d 8a 02 36 a2 45 3e 6c c9 59 3d
       2.602781e-37 2.029441e-37 0.1930016 0.053170606
000220 da 8a 0d be 4e 4b 37 bd 24 dd 29 bd 39 85 85 3d
       -0.13822499 -0.04474955 -0.04147066 0.06519551
000230 b3 a3 cc 3c 5e 25 71 82 dd 3d 33 2e b0 4a 93 82
       0.024980402 -1.7716608e-37 4.0754834e-11 -2.1642577e-37
000240 31 31 25 3e 14 44 4f 3d 63 78 a3 3c fb 1e 62 be
       0.16132046 0.050602034 0.019954866 -0.2208213
000250 f0 4e cd 3d 5e 85 40 be 61 d7 ac 82 bb 5e b3 02
       0.10024822 -0.18800876 -2.539675e-37 2.6356059e-37
000260 5d e0 b2 25 86 75 c1 82 ae 5f 78 3e 97 6d c4 3d
       3.1030112e-16 -2.8426256e-37 0.24255249 0.09591215
000270 f4 95 a1 82 3c 9f ac 82 28 4b 3d 3b 3c 2f 8f 3e
       -2.3742893e-37 -2.5364525e-37 0.0028883908 0.27965724
000280 8e c8 d1 be 5a 20 a7 bd 5e 1b e4 bd fa ab 9b 82
       -0.40973324 -0.081604674 -0.111380324 -2.2873913e-37
000290 87 eb af 82 3a fd da bd ab 53 4b a6 80 39 e7 3d
       -2.5849125e-37 -0.106928304 -7.0543164e-16 0.11290264
0002a0 20 b7 0c be 6f 96 7e 3e 2c b9 b8 02 71 62 d6 be
       -0.13741732 0.24862073 2.7142654e-37 -0.4187198
0002b0 d5 7a 09 bf 9a d1 4d be 65 4e a9 02 a1 fb 97 be
       -0.5370305 -0.20099488 2.4877314e-37 -0.29684165
0002c0 39 61 68 02 69 a3 ce bc a8 a7 cd bd 13 95 bb 82
       1.707257e-37 -0.025224404 -0.100417435 -2.7562745e-37
0002d0 3f a1 4b be 59 5b b3 02 cc 30 0a 3e 19 10 bf be
       -0.19885729 2.6354117e-37 0.13495177 -0.3731697
0002e0 44 91 23 be 54 79 f7 bd ce 36 be 82 56 4c 2f bd
       -0.15973383 -0.120836884 -2.7949447e-37 -0.04279741
0002f0 f0 13 39 bf 73 a9 2c bc 40 7b 22 83 21 01 2c be
       -0.7229605 -0.010538447 -4.7749005e-37 -0.16797306
000300 42 e3 45 82 df 84 bb 82 dc e8 b4 82 69 3e 57 82
       -1.4538494e-37 -2.7553445e-37 -2.6582278e-37 -1.5813616e-37
000310 90 ca 58 01 2e 29 a1 82 df 3b a9 82 56 a9 9b 82
       3.9818266e-38 -2.368046e-37 -2.4866682e-37 -2.2872397e-37
000320 1c 7c bd 82 60 06 c5 02 88 1f a3 82 2f af b5 82
       -2.784229e-37 2.8950207e-37 -2.3968795e-37 -2.669611e-37
000330 7f f6 b5 82 5d a9 07 82 5d cb ac 82 a0 7b b7 82
       -2.6737042e-37 -9.966838e-38 -2.5389853e-37 -2.696039e-37
000340 ca a1 a4 82 24 2d a8 82 5a 3d af 82 a8 96 a8 82
       -2.4190497e-37 -2.471129e-37 -2.5749153e-37 -2.4771854e-37
000350 30 30 a6 82 88 4a 98 82 c3 ea 9d 82 f5 ed b2 82
       -2.4419166e-37 -2.2377172e-37 -2.3203823e-37 -2.629133e-37
000360 35 03 99 82 d6 b8 a6 82 29 0c ae 82 53 16 a8 82
       -2.248317e-37 -2.4497598e-37 -2.5573982e-37 -2.4698195e-37
000370 4a ee a5 82 54 5f a6 82 44 0e a5 82 96 fe b2 82
       -2.4381342e-37 -2.4446223e-37 -2.425276e-37 -2.6300874e-37
000380 3c 97 a9 82 b8 fa a5 82 a6 7b ac 82 cc 1b d7 82
       -2.4919122e-37 -2.4388476e-37 -2.53441e-37 -3.1607365e-37
000390 43 a5 a6 82 5b b7 af 82 07 d7 ab 82 ca 43 b2 82
       -2.4486363e-37 -2.581918e-37 -2.5249611e-37 -2.6193658e-37
0003a0 50 b3 b0 82 3a c7 0e 03 ac 0c 26 01 18 43 ab 82
       -2.5963796e-37 4.195875e-37 3.0498476e-38 -2.5164702e-37
0003b0 d1 5f a1 82 98 e4 a6 82 96 2f b8 82 f5 dc a6 82
       -2.371182e-37 -2.4522714e-37 -2.7063683e-37 -2.451833e-37
0003c0 9e e3 bf 82 0c 22 9f 82 8f 3e c4 02 08 44 a0 82
       -2.8195573e-37 -2.3382492e-37 2.8835518e-37 -2.3548935e-37
0003d0 01 2b a6 82 b7 ef c2 82 3e 69 b2 82 9a d2 ad 82
       -2.441619e-37 -2.8643328e-37 -2.6215155e-37 -2.5540945e-37
0003e0 18 2b ab 82 9b f2 a1 82 b2 1d 83 82 38 25 bb 82
       -2.5150926e-37 -2.3796073e-37 -1.9265764e-37 -2.7498543e-37
0003f0 81 01 2f 03 be 56 ad 82 eb 77 ef 82 aa 64 a9 82
       5.1429604e-37 -2.5469853e-37 -3.5186723e-37 -2.4890096e-37

fc2.bias f4 [64]
000000 04 80 c0 82 42 eb 5d 3d 07 e6 50 be b6 f8 ae 82
       -2.8285342e-37 0.054179437 -0.20400248 -2.5709755e-37
000010 2c 43 a1 bd 27 60 34 3d f2 48 af 82 5a 24 2b bc
       -0.0787414 0.04403701 -2.5755807e-37 -0.010445679
000020 20 59 0f bf ec 78 37 3d 75 47 bd 3e 33 2c 22 3e
       -0.5599537 0.044793054 0.3696858 0.15837173
000030 c4 89 fd 3c da 3d 72 be 04 22 b0 82 a6 70 bc 82
       0.03094948 -0.23656407 -2.58804e-37 -2.7688774e-37
000040 ca e1 8c 82 26 76 10 3e c3 f0 a0 3e 39 30 00 3e
       -2.0700748e-37 0.1410757 0.31433687 0.12518395
000050 1b 19 9c 3e fe 20 b9 82 b2 b3 57 be 26 3e a3 82
       0.30487904 -2.7202243e-37 -0.21064642 -2.3986369e-37
000060 6b 51 7c be 4e e7 d8 3e aa 99 38 be c5 6c b4 82
       -0.24640433 0.4236397 -0.18027368 -2.6511054e-37
000070 ac 6a 4e bf d0 7a b6 82 5e c0 9e 3d 15 8c ac 82
       -0.8063152 -2.6812987e-37 0.07751535 -2.5353532e-37
000080 db f7 5d 3d 04 48 9a 3d c2 81 43 be 24 47 bc 82
       0.05419145 0.07533267 -0.19092467 -2.766495e-37
000090 86 d6 e3 bc f0 ed 06 3f 93 e8 d0 be e0 5d 2d 3d
       -0.027812254 0.52706814 -0.4080244 0.042325854
0000a0 02 8d 06 be 1b 7f a6 3e 4d dc 82 be b1 aa b4 82
       -0.13139728 0.3251885 -0.255587 -2.6546595e-37
0000b0 bd 61 aa 82 e3 58 9b 3e 0a 42 3d 3e d0 4e a6 82
       -2.5035354e-37 0.30341253 0.18482223 -2.4436744e-37
0000c0 11 f3 21 3e 0f d2 89 3e 4c 96 c7 be 06 58 b6 bd
       0.15815379 0.26918074 -0.38981855 -0.08903508
0000d0 88 eb 39 be 93 cd ab 82 c4 09 ab 82 71 18 5c bb
       -0.18156254 -2.5244186e-37 -2.5131797e-37 -0.0033583904
0000e0 d1 0c 0f be 14 b2 12 bd 48 bc a2 82 50 07 b9 82
       -0.13969733 -0.03581436 -2.3911829e-37 -2.7187504e-37
0000f0 0b 90 e6 bd 24 6c a0 82 56 f9 c0 3e fd 66 34 3e
       -0.11257943 -2.3571957e-37 0.37690228 0.17617412

fc3.weight f4 [64, 64]
000000 bf d2 b8 02 a7 d0 1d 3e 6f cd ce 3e 44 89 c4 02
       2.7157332e-37 0.15411626 0.40391108 2.8878398e-37
000010 af 86 32 3e 18 20 94 bb a4 d4 af 02 2a 29 fb bc
       0.1743419 -0.0045204274 2.5835989e-37 -0.030659277
000020 e1 53 18 3c d0 14 fd 3d 90 ad 2f 3e 6a 36 00 3e
       0.009297342 0.12357485 0.17156053 0.12520757
000030 74 ba c2 3e eb e8 1a 3e 4b d0 c0 02 18 0b ae 82
       0.38032877 0.15127914 2.8331419e-37 -2.557337e-37
000040 53 fe bf 82 e8 ac fa bd 64 e4 50 bd 8b ef 31 be
       -2.8210903e-37 -0.122400105 -0.05099906 -0.17376535
000050 22 5f e7 3d 43 fe c1 02 b1 0d 9d 3d e9 24 b4 82
       0.11297442 2.850474e-37 0.07668627 -2.6469808e-37
000060 16 f2 92 3c 48 47 0f bd 59 d4 08 3d 88 4f a6 82
       0.017937701 -0.03498009 0.033405636 -2.4437156e-37
000070 55 1a 67 be 24 04 8d 02 ad cf 2a 3e e2 9f 9e 82
       -0.22568639 2.0720465e-37 0.16680785 -2.3307782e-37
000080 bc 1c 31 be 54 b2 29 bd fe 9c 92 3d 6b 8d a6 02
       -0.17296118 -0.041429833 0.0715885 2.4472678e-37
000090 7a 45 e0 3d 27 9e fb bd fe ba 19 3e 5d f7 b8 3e
       0.109507516 -0.122860245 0.15012738 0.36126223
0000a0 13 22 a1 3e 71 70 2f bd bf 25 88 3d d9 b3 b1 82
       0.3147131 -0.04283184 0.066478245 -2.611104e-37
0000b0 4c 1a b0 02 8f a4 fd 3d db 73 25 be 98 b3 b3 82
       2.587597e-37 0.12384903 -0.16157477 -2.6404768e-37
0000c0 77 ab dd 3e f6 a6 51 3d 58 76 ae 3c 49 23 8b 3e
       0.4329488 0.051184617 0.021296665 0.27175358
0000d0 e1 a8 96 bd 44 d2 b1 02 de 04 b8 02 18 99 bf 37
       -0.0735643 2.61285e-37 2.7039164e-37 2.2840264e-05
0000e0 28 98 00 be dc 38 9b 3d fc ab af 02 78 73 ad 02
       -0.12558043 0.075792044 2.5812653e-37 2.5486341e-37
0000f0 b2 f3 21 3e a8 0e b4 02 98 58 8b 3d f9 2f 1b bd
       0.15815619 2.6457035e-37 0.06804007 -0.037887547
000100 51 00 af 02 c3 13 aa 3d 16 43 c4 82 36 6e b9 02
       2.571412e-37 0.083045505 -2.8838117e-37 2.7246565e-37
000110 f1 e1 bf 3b a9 ec b5 82 00 a5 a0 02 ee f6 ee be
       0.0058557917 -2.6731396e-37 2.3604592e-37 -0.46672767
000120 f9 44 ba 3e 0e 65 dc 3d c2 64 1d be 68 f4 15 3e
       0.36380747 0.10761462 -0.15370467 0.14644015
000130 44 a4 d7 3d 60 6a a9 82 4e 26 c1 82 24 48 b6 01
       0.10529378 -2.4893374e-37 -2.8380787e-37 6.695976e-38
000140 b0 da b8 82 1c 9b 16 be a2 70 ec be 22 d3 b2 82
       -2.716189e-37 -0.14707607 -0.46179682 -2.6275934e-37
000150 0c 1e be 82 2e d9 c9 82 ea e1 b5 02 ed be b4 02
       -2.7935237e-37 -2.965895e-37 2.6725228e-37 2.655821e-37
000160 56 55 a7 be fd fc 4e bf a1 b2 b5 82 eb 95 bf 82
       -0.32682294 -0.8085478 -2.6698088e-37 -2.8150976e-37
000170 1d 01 93 3e a5 fa 7d 02 b4 b7 a8 02 7c 40 4c 02
       0.28711787 1.8659436e-37 2.4790822e-37 1.5006059e-37
000180 27 c3 c1 02 9f 2e e0 3c 9e 95 43 03 dd 99 b6 82
       2.8470813e-37 0.02736598 5.74771e-37 -2.683081e-37
000190 af fd b0 02 46 c7 9f bf cb 04 d9 3d c7 dc a5 02
       2.6006483e-37 -1.2482688 0.10596617 2.437129e-37
0001a0 d8 0d a9 02 a0 48 eb 3d c7 35 ac 82 7e 38 a9 82
       2.4840264e-37 0.114884615 -2.5303995e-37 -2.4864743e-37
0001b0 86 ef 01 83 26 1b b5 02 68 1c 49 3d e8 9f ab 82
       -3.818465e-37 2.6611142e-37 0.049099356 -2.5217973e-37
0001c0 c5 a3 ce 3e 86 b6 30 3c c8 9b 96 3e a4 c0 0a 3e
       0.4035932 0.0107857045 0.29415727 0.13550049
0001d0 87 91 8b 3d ba ce d5 82 bc cf b4 82 48 ae 18 03
       0.068148665 -3.1416192e-37 -2.6567857e-37 4.486885e-37
0001e0 cb 50 09 bc 2f 03 ac 82 07 d1 b6 02 8b d2 9f 02
       -0.008381079 -2.5274956e-37 2.6862472e-37 2.3483796e-37
0001f0 dd 72 a3 02 54 b1 bb 02 b2 4f b3 02 c5 e9 b4 82
       2.4016626e-37 2.7578962e-37 2.634743e-37 -2.65828e-37
000200 66 b5 bc 02 35 60 e5 bd 8b 88 5c be 08 32 b2 82
       2.7728235e-37 -0.11199991 -0.21536462 -2.6183466e-37
000210 2e fc f3 be 7e 44 62 3e 82 5b ac 82 dd 85 0c bb
       -0.47653335 0.2209644 -2.5325651e-37 -0.0021442093
000220 36 08 a4 82 02 da b0 3d f5 bf 22 bd cc e8 9d bc
       -2.4102347e-37 0.08635332 -0.039733846 -0.019276045
000230 48 85 a1 82 65 3e 95 3e 2d da af 82 2c c5 a6 82
       -2.3733323e-37 0.29149166 -2.5839166e-37 -2.450468e-37
000240 9a 25 a4 02 a9 a2 d8 be 88 cc cd 3d 2b 11 3f 3e
       2.4119216e-37 -0.423116 0.10048777 0.18658893
000250 71 91 76 be bb 1c a8 82 9d 6c c2 3d bd 70 af 02
       -0.24078919 -2.4701872e-37 0.094933726 2.5778648e-37
000260 e5 f8 28 3e 53 d7 9a 3c b1 5a 34 3e 46 2b b5 82
       0.16501196 0.018901503 0.17612721 -2.6620397e-37
000270 9d a8 c2 82 38 0b a6 82 90 53 83 3d 24 4a 9d 82
       -2.8602517e-37 -2.4397947e-37 0.06412423 -2.3111631e-37
000280 f5 f7 8e 3d bd ff a1 be c8 01 58 bc e6 b6 b2 02
       0.06980888 -0.31640425 -0.013184018 2.6259728e-37
000290 2b f8 be 3e 24 f3 00 be d2 47 ac bc c6 92 86 3e
       0.37298712 -0.12592751 -0.02103034 0.26283854
0002a0 0c 4c 5f be 4d 37 95 be c7 5e 81 bc cb e6 b3 02
       -0.21806353 -0.29143754 -0.015792264 2.6434155e-37
0002b0 4d 29 10 02 6b c8 b2 3d 40 2a 14 bc 49 1b b5 02
       1.0591302e-37 0.08729633 -0.009043276 2.661122e-37
0002c0 b9 86 e5 3c b1 17 98 bd fe 96 b1 82 8d 8f 3b 3d
       0.028018342 -0.07426394 -2.6094478e-37 0.045791198
0002d0 2e 5f ac bd 48 85 ba 82 5b 9f ad 02 0d f1 90 02
       -0.084165916 -2.7406743e-37 2.551153e-37 2.1297255e-37
0002e0 f5 8c d6 bb 84 de ab 3e d5 bb af 02 8c 2b ac 02
       -0.006547565 0.33568203 2.582175e-37 2.5298123e-37
0002f0 e9 b2 84 be 99 b8 cf 01 82 20 38 3e 6d 06 34 3e
       -0.25917748 7.6304675e-38 0.17981151 0.17580576
000300 9f 13 ba 82 66 20 03 bf 8b ee 52 3d 9a 85 ad 02
       -2.7341506e-37 -0.5122131 0.051497024 2.5496749e-37
000310 47 99 94 bd 3e 1d 63 be ec 6b b7 82 7d 81 d8 3c
       -0.07255798 -0.22179124 -2.6951377e-37 0.026428932
000320 90 ed 7d bf 5b 28 10 bd 3a 34 71 bf a1 ac 19 bf
       -0.99190617 -0.035194736 -0.94220316 -0.60029036
000330 f3 ec 97 3e 13 ac d7 be 8a e7 ae 82 c0 cb 3d 83
       0.29672965 -0.4212347 -2.56999e-37 -5.5776e-37
000340 de 9e a5 82 51 ae 3a be c7 5a da 3d 79 fe 03 bd
       -2.4335756e-37 -0.18230559 0.10661846 -0.032225106
000350 fb dd 85 bf 44 1e a8 02 9c bb b0 82 07 96 9b 02
       -1.0458368 2.4702753e-37 -2.5968558e-37 2.2861315e-37
000360 14 d5 59 bd 0c 08 ff ba 14 72 88 be 29 06 bc 82
       -0.053181723 -0.0019457354 -0.26649535 -2.7627653e-37
000370 2e 63 49 bf d6 47 5d 82 9e 3d 79 be 6a e5 b7 82
       -0.7866696 -1.6257132e-37 -0.24339911 -2.702111e-37
000380 e6 98 11 be 58 12 04 3d d3 fd c4 02 f9 77 b5 02
       -0.14218482 0.032244056 2.89453e-37 2.666442e-37
000390 1b 28 e7 bd db 8a 0c 3e a0 ee 6c bc c8 a3 e9 3d
       -0.112869464 0.13724844 -0.0144611895 0.11408192
0003a0 82 da 50 3d 28 08 4b be 98 35 05 bd c8 11 c9 02
       0.050989635 -0.1982733 -0.032521814 2.9544502e-37
0003b0 4c 03 5d 01 80 ef a9 be 71 71 a9 3a 98 c8 38 82
       4.0593655e-38 -0.33190536 0.0012927485 -1.3575753e-37
0003c0 8e c6 81 3e f8 50 cb be f2 f4 02 be 1f 07 2a 3e
       0.25346798 -0.39710212 -0.12788752 0.16604279
0003d0 d8 3a 29 bd 90 c4 b1 02 ca fb ac 82 5b a1 0d bb
       -0.041315883 2.6120634e-37 -2.5417648e-37 -0.0021611068
0003e0 19 05 8b bd 8d a4 e0 bd e4 74 b5 82 98 01 a6 82
       -0.06788082 -0.109688856 -2.6662652e-37 -2.4392423e-37
0003f0 88 e0 aa 82 5c 1b bb 82 ad a7 c7 3b 22 e8 b3 82
       -2.510813e-37 -2.7492884e-37 0.0060929866 -2.6434924e-37

fc3.bias f4 [64]
000000 fb 1d 3b 3e 56 a5 31 bf 2f 2c 65 be 8a da b9 3e
       0.18273155 -0.6939291 -0.22380136 0.36299545
000010 73 5f 87 be ec 2a e8 bd d4 f5 3d 3e ba 31 a1 3e
       -0.2644001 -0.11336312 0.18550807 0.3148325
000020 da 5e aa 82 05 91 b4 82 ce 46 17 3e 4a a3 a1 82
       -2.5033697e-37 -2.653186e-37 0.14773104 -2.3750547e-37
000030 6a 32 ce 3e c5 c1 19 3e ea dd 6e bc 5e 6b ac 82
       0.40272838 0.15015323 -0.014579276 -2.5334754e-37
000040 44 df 46 be 3e d7 ba 82 ca 30 53 3d c2 d3 1e ac
       -0.19421107 -2.7453787e-37 0.0515602 -2.25707e-12
000050 9d 98 ac bd 80 ec a5 bc c7 7c 6d be ed 69 c7 3b
       -0.08427546 -0.020254374 -0.2319213 0.0060856254
000060 8c b8 bd 82 3c 2c c2 bb f4 24 ba 3e 27 b8 9e 3e
       -2.7876979e-37 -0.0059256833 0.36356318 0.30999872
000070 e9 70 1d be 77 14 64 3e ef f9 96 ba 59 2e b8 3e
       -0.15375103 0.22273432 -0.0011518578 0.3597286
000080 b5 ce a2 82 c9 6d b1 82 d3 41 b0 82 1a 2f 03 3f
       -2.3922405e-37 -2.6070826e-37 -2.5898657e-37 0.51243746
000090 41 00 4e 3e 2a bb a0 82 36 53 2a 3e 6a b4 b9 82
       0.20117284 -2.3617314e-37 0.16633305 -2.728686e-37
0000a0 15 f0 77 be d3 c7 91 3e bc 84 a0 82 3f a9 60 3d
       -0.24212678 0.28472766 -2.3586073e-37 0.054848906
0000b0 d5 9f ae 82 fa d7 af 82 88 1a aa 82 c6 f4 58 3d
       -2.5658741e-37 -2.5837903e-37 -2.4994483e-37 0.05296781
0000c0 9d fe 5b be a7 34 4d 82 f3 10 c8 bd ff b9 b5 82
       -0.21483846 -1.5076132e-37 -0.09768858 -2.6702316e-37
0000d0 43 76 b4 82 3a d6 63 3d 4c cc 54 bd a7 72 f5 bd
       -2.6516502e-37 0.055624224 -0.051952645 -0.11984759
0000e0 ad cc 8d 3e 5e 48 ae 82 4b a6 94 be c7 df 79 be
       0.27695218 -2.5608539e-37 -0.2903312 -0.2440177
0000f0 a1 a0 40 be 30 db ac 82 36 57 89 3d 5e 46 af 82
       -0.18811275 -2.5398936e-37 0.06706087 -2.5754328e-37

fc4.weight f4 [5, 64]
000000 3f 3e b4 3d 01 d7 24 3e 28 80 2e 3d df d8 66 bd
       0.08800935 0.16097642 0.042602688 -0.05635917
000010 30 1b 1f bd 3a 83 bf ba bf d9 2f 3e c0 0a 01 be
       -0.038844287 -0.0014611252 0.17172907 -0.12601757
000020 b1 e0 a3 02 5a a9 b5 02 c7 b2 9e bd 3f 29 bd 82
       2.4079664e-37 2.6692763e-37 -0.07748943 -2.7794728e-37
000030 b6 5b 6a 3d ff ac b3 bd a5 ae 86 bc 35 d8 b8 82
       0.05721637 -0.08773231 -0.016440699 -2.7160467e-37
000040 82 48 46 bc f6 cf b2 02 21 5c 18 bd e7 4c aa ae
       -0.012102248 2.6274113e-37 -0.037197236 -7.7443656e-11
000050 20 65 9e 3e 1b b5 90 3c d2 59 90 be 7b 1d cb 3e
       0.30936527 0.017664483 -0.28193527 0.3967093
000060 84 79 d0 02 3b db c3 3e 2e 5f 85 bd 08 a7 7c bd
       3.06326e-37 0.38253197 -0.06512295 -0.06168273
000070 29 de 3e 3d fa 06 b0 3e b3 78 93 ad 7e ad b5 3d
       0.046598587 0.34380323 -1.6765566e-11 0.08870982
000080 55 bd c5 02 3b ab b4 02 ac 3e 02 82 61 1a 2b be
       2.905522e-37 2.6546904e-37 -9.568878e-38 -0.16709282
000090 5d 37 b8 3e a6 a0 b7 82 b3 6f 09 3d f2 ed bb 82
       0.3597974 -2.698164e-37 0.03355379 -2.7613754e-37
0000a0 31 60 68 bf fc 3e 66 3d 5e e6 b6 02 51 b2 92 bd
       -0.90771776 0.05621241 2.687472e-37 -0.071629174
0000b0 2e 63 b3 82 25 21 bc 82 e7 e0 54 82 0a 3b 1d be
       -2.6358612e-37 -2.7643141e-37 -1.5639844e-37 -0.15354553
0000c0 f1 4f 84 3e d5 a9 c1 82 58 63 25 3e 80 78 c4 02
       0.2584224 -2.845628e-37 0.16151178 2.8868775e-37
0000d0 20 fc 68 03 49 ce 29 be 30 e6 20 3e c6 88 c4 3d
       6.8468098e-37 -0.16582598 0.1571281 0.095964
0000e0 95 01 1a bd 32 84 a5 02 50 6b 0d be b7 50 29 bc
       -0.037599165 2.4320447e-37 -0.13810468 -0.010334185
0000f0 f1 52 57 be fe a9 be 82 3b 85 53 be 4a 4e ba 02
       -0.21027733 -2.8015562e-37 -0.20656292 2.737518e-37
000100 f2 95 1a 3e 52 5c ab 3d b9 16 82 3d 1e 13 65 3d
       0.15096262 0.08367218 0.0635199 0.055926435
000110 ed e1 5c bc c2 15 2c 3d dd e5 a6 3d 8f c5 a4 bd
       -0.013481599 0.042012937 0.08149312 -0.08045494
000120 70 da ac 02 2d d6 b3 82 e4 6a 3f 3e 00 7f a8 02
       2.5398506e-37 -2.6424617e-37 0.1869312 2.4758276e-37
000130 4a b0 47 be f4 b5 d7 3d aa 17 a6 bd 59 40 bd 02
       -0.19500843 0.10532752 -0.08109982 2.7807988e-37
000140 52 69 b9 3b 19 23 ba 02 30 7c 12 3e 24 ff 8b 82
       0.005658307 2.7350389e-37 0.14305186 -2.0570658e-37
000150 2b 7c f6 3c 92 86 fe 3a 2a c0 fa bd 51 80 39 bd
       0.030088505 0.0019418767 -0.12243684 -0.045288388
000160 57 7d b9 02 22 f6 66 bd 06 72 cc bd 27 06 10 3e
       2.7255248e-37 -0.056387074 -0.09982686 0.14064847
000170 f2 d5 d6 3d 84 3b e6 bc 96 a5 54 2d f1 b5 ec bd
       0.104900256 -0.028104551 1.2087572e-11 -0.1155814
000180 2f 33 d8 02 63 51 aa 02 40 1a 89 82 8e 08 88 be
       3.1767725e-37 2.5025969e-37 -2.0145408e-37 -0.26569027
000190 77 20 42 bc 4c c8 a3 82 be 16 a4 3c 41 80 b3 02
       -0.011848561 -2.4065662e-37 0.020030376 2.63753e-37
0001a0 3f ff d5 bc 9c 8d 4b bd 8c 41 ba 82 23 ae cc 3c
       -0.026122687 -0.049695596 -2.7367866e-37 0.024985379
0001b0 97 f3 b8 82 29 8f c6 82 82 88 a0 81 5e 5a 3c bd
       -2.7176184e-37 -2.9175655e-37 -5.8970597e-38 -0.04598462
0001c0 d0 56 19 bd 6c f7 b0 82 01 dc c7 3b 31 be bf 82
       -0.037436306 -2.600289e-37 0.0060992246 -2.8174092e-37
0001d0 e2 e1 a3 82 93 5c b8 bc 1f 1b 36 3e 3f 32 8a 3d
       -2.4080348e-37 -0.02250508 0.17783783 0.06747865
0001e0 fd 84 2a 3e 14 35 b5 02 6f eb 9f bd 90 37 9b bd
       0.16652294 2.6626025e-37 -0.07808577 -0.07578957
0001f0 67 76 f6 bc d9 d4 82 02 c6 37 eb bc f0 16 b6 02
       -0.030085756 1.9223952e-37 -0.028713118 2.6755662e-37
000200 61 78 e7 3d 9d 96 e6 bc 98 8a 99 bb ad f1 53 bc
       0.11302257 -0.02814799 -0.004685711 -0.012936038
000210 30 0f 34 be 4a 7e 8a 3b d9 86 c2 bc c5 cc be 3c
       -0.17583919 0.0042264806 -0.023745941 0.023291001
000220 0c 1c aa 82 e9 81 b8 82 2c d0 e3 3c 14 f3 a0 02
       -2.4995353e-37 -2.7110935e-37 0.027809225 2.3649407e-37
000230 04 c1 af 3d 0e 74 2f 3d 9d eb 1f 3e 8e 52 a5 82
       0.08581737 0.042835288 0.15617223 -2.4291955e-37
000240 3d ea 2f bd c6 4d ad 02 69 80 5e bd c5 fa a3 1b
       -0.042947996 2.5464705e-37 -0.05432168 2.7128144e-22
000250 6e 87 2a be 37 6d d9 bb 91 0e 26 3c 6f 14 91 bd
       -0.16653225 -0.006635334 0.010135309 -0.070839755
000260 37 d3 b9 02 52 12 2f 3b e6 b1 1e be 2d fa 5f be
       2.7304538e-37 0.00267138 -0.1549755 -0.21872778
000270 cb 2f 0d bd 8e 30 2a bd 22 1c 06 b2 bf 8c 27 bc
       -0.034469407 -0.04155021 -7.806223e-09 -0.010226428
000280 8a 13 a6 82 ec 35 ae 82 0a 36 91 02 2a d3 1b bf
       -2.4402723e-37 -2.5597952e-37 2.1336852e-37 -0.60869086
000290 ad 82 81 bd 46 df bf 82 a4 ad 3c bd 77 67 c2 82
       -0.063237526 -2.819308e-37 -0.046064034 -2.8565124e-37
0002a0 96 96 16 be 5c 2a c5 3c a9 c4 bd 02 53 1d 24 bd
       -0.14705881 0.02406805 2.7883931e-37 -0.04006703
0002b0 a3 f2 b3 82 1a 00 be 82 22 e6 c4 80 fc 54 66 3d
       -2.6440953e-37 -2.791805e-37 -1.8082313e-38 0.05623339
0002c0 25 7e ae bd 76 2c bc 02 16 ad 21 bd e0 9a c0 02
       -0.08520154 2.7649637e-37 -0.03947171 2.8300758e-37
0002d0 f1 ab b8 02 94 f2 f9 3c 70 52 1c bd 19 08 04 bd
       2.713506e-37 0.030511178 -0.038164556 -0.032234285
0002e0 ca ef b5 3e 5c b6 a4 82 85 bc 58 3d 94 ae f8 3c
       0.35534507 -2.4202303e-37 0.05291416 0.030356683
0002f0 51 ad f6 3d e1 70 a3 02 23 1b 14 be 26 70 b1 82
       0.12044776 2.4015487e-37 -0.14463477 -2.6072183e-37
000300 9a d2 c3 3d 75 8d 38 bf 74 bd 77 3e ad 8b 50 bf
       0.095616534 -0.72090846 0.24193364 -0.8146313
000310 26 b8 6a 3d 7b 8a b4 be c9 74 25 bf b9 53 ec 3e
       0.057304524 -0.35261902 -0.64631325 0.46157625
000320 76 b9 be 82 c8 ff b1 82 f3 9f f1 bd 76 72 a9 02
       -2.802444e-37 -2.6154624e-37 -0.11798086 2.4898016e-37
000330 fb 51 a4 3e 75 af 53 3e a6 3b 9e 3d a7 57 b4 02
       0.32093796 0.206724 0.07726221 2.6498933e-37
000340 4c ba 4c 3e 77 0b cd 02 bf 33 9e 3c 0e 5c 15 1f
       0.19992942 3.0128623e-37 0.019311784 3.1628123e-20
000350 6b 46 37 bd 9e aa 52 3b 19 bc 26 3e 73 5b a5 3e
       -0.04474489 0.0032145153 0.16282691 0.32296333
000360 c6 6d be 02 aa e0 bc bd 88 27 91 3d 21 1d 80 bc
       2.7980998e-37 -0.09222539 0.07087618 -0.01563889
000370 91 32 1b be e9 16 58 bc 02 73 ef 37 96 a8 81 bd
       -0.15156008 -0.013189056 2.8544575e-05 -0.06330983
000380 13 e5 b1 02 1c dc ba 02 a6 b7 8d 81 b8 19 bc 3c
       2.6139295e-37 2.745658e-37 -5.205874e-38 0.022961482
000390 e1 d3 c8 3d 08 26 b7 82 c8 35 cb 3d 4c 3a c5 82
       0.09806038 -2.6911262e-37 0.09922367 -2.898001e-37
0003a0 16 67 81 be 74 af 0a be fa 13 bb 82 4b 53 16 be
       -0.2527396 -0.13543493 -2.7488646e-37 -0.14680211
0003b0 01 72 b6 02 ea 3e bd 82 42 ae 81 82 5b e8 99 bc
       2.6807932e-37 -2.7807165e-37 -1.9054865e-37 -0.018787554
0003c0 3b 0d 00 3e 43 fa ce 82 11 a2 4c be bf e5 c0 82
       0.12505047 -3.0412623e-37 -0.19983698 -2.8343732e-37
0003d0 f7 91 a6 82 42 f9 3f 3e 6a cb e3 bc dd a6 65 3d
       -2.4475287e-37 0.18747428 -0.027806956 0.056067336
0003e0 da 7f af 3c c0 56 bc 82 92 41 bf 3d 98 6f 48 bc
       0.021423269 -2.767391e-37 0.093386784 -0.012233637
0003f0 fb d7 bd bd 6c 22 a3 02 85 7b b7 3d fa 91 c2 02
       -0.09269711 2.3970455e-37 0.08959106 2.8589524e-37

fc4.bias f4 [5]
000000 2a ab d1 3e 79 72 8b 3e 47 c1 b8 3e 03 66 f3 3e
       0.409509 0.27235773 0.3608496 0.47538766
000010 07 6b 9f 3e
       0.31136343
