results/model/best_model_ANN.pth (torch, 21333 bytes, 8 tensors)

fc1.weight f4 [64, 20]
00000000: a1dc 6b3e 6ada 903e 7b4b 713e 3f02 243c
00000010: bf6b 82be 964f beba 5380 21be f873 3dbe
00000020: 8f83 7cbe 9121 0f3e da15 403c 4ab8 b5be
00000030: 0245 ca3c f9d0 31bc 81ec 233d d412 893c
00000040: 435f 543e 6abd cbbd eb0b fb3c dfd6 183d
00000050: d432 7b3e 92fd b43d e1f6 4f3d 4b11 77be
00000060: aef2 1d3e 8131 ddbc 2092 87be 45d9 863e
00000070: 4245 e63c 1a31 b0bd 5820 23be 31e5 86bc
00000080: 07da 5e3e 37d0 86be 944b e0bd e1e6 c53e
00000090: 9e7c 2c3e 1637 01be db25 ca3e 7667 eabe
000000a0: 6568 ab3d b7bb 0f3e 8763 783e bd5d 39be
000000b0: 4c19 7abe c999 b7bd 5b1e a93e 4699 14be
000000c0: 170e 27bd a968 173d 9215 463e 15ce d9bd
000000d0: bb2a c4bd 4bb1 5d3e abbc 653d 2815 dfbd
000000e0: f732 7d3d d02c 763e c55d 02be 3eb2 e73c
000000f0: 9d39 1abf b348 f7bd e260 3b3e 927a a9be
00000100: 0087 51be d01a a73e 3c17 9b3d fdcd 77be
00000110: 9cfc a33e a6ac eb3c 85ab 7c3e 18a6 a83e
00000120: 550a a1be 4e3d 63be 847a 84be a438 e13c
00000130: ceb4 eabe f545 be3d 7ed0 883e 2e29 84be
00000140: 9557 2f3b cac8 3dbe c6ad 4abc f042 9bbc
00000150: b6d5 873e 0630 b43d 9909 543e 5a3e 213e
00000160: 8a2c 883d f0d5 fb3d c25a fd3d 40de 4d3b
00000170: 4f1d 9e3d 0ec5 163e 9482 0abe 5706 49be
00000180: e425 f53c c893 dfbd 53ea 3d3e 3550 61be
00000190: 13ae bf3e fa1f cebe 702b d4be 5b8d d4be
000001a0: 141d 45bd 6041 833d e10b d23e 6a17 06be
000001b0: 6429 e13d d3d7 903e a193 0bbf e746 843e
000001c0: 8096 48be 3850 03bf 1661 8d3e f43d 72bd
000001d0: 4518 68bd 41e7 bcbd b85c 14be 117d c6bd
000001e0: 6bfe 053e 8df1 d43e 059d 603e dfe6 1c3e
000001f0: 0ee1 a1bd 65c3 d73d e17a 4cbe 0510 35be
00000200: 100e 913d 4f89 af3d 95bc 163e c535 003e
00000210: d6e3 3a3e 7102 ccbe 2e3e b8bc 79ec 23bd
00000220: 1cfc a4be 6b51 80bd d28c 553e 567c bc3d
00000230: d56c 85be 7c27 88bd 1d61 39bd 004b 3e3e
00000240: ce0b 8bbe 0d17 8dbe 8acc 533d b4cc 023e
00000250: 642d c93e 711b 373d 6f44 db3c 1059 dbbb
00000260: cd4a bd3d b5b9 4d3e 217e 35be 78cd f93d
00000270: 0611 51be 9af5 1a3c 8b78 5f3e 32cb 55be
00000280: a7ea 073e 5483 d23d 60b9 7fbe 2165 4abe
00000290: 5fcb cf3c 41aa 033e 67d3 09be 8d53 5f3e
000002a0: aa54 8f3e 203a 033c dc99 bdbd fc5e 8f3d
000002b0: 6997 113e c419 a63d 58d6 59be e4b9 56ba
000002c0: 7465 c03d 60f8 0c3e 8031 933e f971 84be
000002d0: 1925 fdbd 19a5 babd 980f e33d 41e7 a03e
000002e0: 6462 80be ffe3 b1bd 15ee d73e dfe3 58be
000002f0: 2837 9cbe 353e 393e c2d4 14be 5f57 cabe
00000300: c7b2 98bc 8d65 e63d 4856 893e 4d4b b73d
00000310: 64e4 7cbc fbc6 c8bd b9db 113e b883 c3be
00000320: 5b2c 5d3e 5946 81bd 6491 0ebe b4c1 20bd
00000330: d753 96bc 7a75 41be 2a52 e8bc 348c 0dbe
00000340: b323 31bd d5bf c7bc a346 82be 18a8 4bbd
00000350: dbce df3d 5240 c63b b7f9 833d ee93 04be
00000360: 2209 6b3d 7a4c 33be aa67 eebd 2ca7 003e
00000370: e315 c23e 2b59 3bbe a6c8 efbd a68d a83d
00000380: d219 713e 842e d73d 7474 a73d 8e3d 63bd
00000390: 5cb7 8dbe abbf e0bd ad0c f73c acc8 833d
000003a0: ebe6 ca3d d3f5 73be 67b5 803e d3e1 623e
000003b0: 6eff 0ebe 6fa7 bd3c 48ec e63e 6e66 a4be
000003c0: c4e4 833e da97 923d 7d84 e6bd 8745 51bc
000003d0: 4f8b b93e 33c9 c5bd 5edb 08bf b9fb 673e
000003e0: e70f 64be a877 423c a932 743e 65b3 7bbe
000003f0: aa81 873d 8d5d 073e c145 9bbd 308b 993e
0.23033382 0.28291637 0.2356395 0.010010301 -0.2547283 -0.0014519568 -0.15771608 -0.1850127
-0.2465956 0.13977648 0.01172396 -0.35492164 0.024691109 -0.010853046 0.04002047 0.01673261
0.20739464 -0.09948237 0.030645331 0.037314292 0.24531108 0.08837427 0.05077255 -0.2412769
0.15424606 -0.027001144 -0.26478672 0.26337638 0.028109197 -0.086031154 -0.15930307 -0.016466709
0.21762858 -0.2633073 -0.109519154 0.3865271 0.16844413 -0.1261867 0.39482006 -0.4578206
0.08369521 0.14036451 0.24256717 -0.18102165 -0.24423712 -0.08964879 0.33030972 -0.14511594
-0.04078492 0.036965046 0.19344166 -0.1063501 -0.09578463 0.21649663 0.05608813 -0.10892707
0.061816182 0.24040532 -0.12731083 0.028283235 -0.6024416 -0.12074413 0.18298677 -0.33101326
-0.20461655 0.32637644 0.07572791 -0.24199672 0.32028663 0.028768849 0.24674805 0.3293922
-0.31453195 -0.22191355 -0.25874722 0.027492829 -0.45841068 0.09290687 0.26721567 -0.25812668
0.0026755084 -0.18533626 -0.012370532 -0.018952817 0.26530236 0.08798222 0.20706786 0.15746441
0.0664912 0.12296665 0.12370826 0.003141299 0.07720434 0.14723608 -0.13526374 -0.19631325
0.029925294 -0.10916859 0.18546419 -0.22003253 0.37437496 -0.4025877 -0.4143939 -0.41514096
-0.048123434 0.06408954 0.41024688 -0.1309487 0.10994223 0.2828966 -0.5452214 0.25835344
-0.19588661 -0.5129428 0.27613133 -0.059141114 -0.05666377 -0.09223796 -0.14488494 -0.09691823
0.13085334 0.4159054 0.21934898 0.15322445 -0.07904254 0.105353154 -0.1996875 -0.17681892
0.0708276 0.085711114 0.14720376 0.12520511 0.18250975 -0.39845613 -0.022490587 -0.04002044
-0.32223594 -0.06265529 0.208545 0.09203403 -0.26059595 -0.06648156 -0.04525863 0.18583298
-0.27157444 -0.2755665 0.051708736 0.127734 0.39292443 0.044703905 0.02676603 -0.0066939667
0.09242783 0.20090373 -0.17723896 0.12197393 -0.2041665 0.00945797 0.21823327 -0.20878294
0.13273107 0.10278955 -0.24973059 -0.1976514 0.02536553 0.12857915 -0.1345955 0.21809216
0.2799428 0.008009464 -0.09257862 0.07000539 0.14217915 0.08110383 -0.21273172 -0.0008191152
0.09394351 0.13766623 0.28748703 -0.25868204 -0.123605914 -0.09113521 0.11086959 0.31426433
-0.25075066 -0.08686065 0.4217383 -0.21180676 -0.3051083 0.18090136 -0.14534286 -0.39519784
-0.018639935 0.11249838 0.2682364 0.08949909 -0.015435312 -0.098035775 0.14243974 -0.3818643
0.21598952 -0.06312246 -0.1392265 -0.03924723 -0.018350525 -0.1889247 -0.028359491 -0.13823014
-0.043246936 -0.024383465 -0.25444517 -0.049720854 0.109281264 0.006050148 0.06444114 -0.12947056
0.057381757 -0.17509642 -0.11640866 0.12563771 0.37907323 -0.18295734 -0.117081925 0.08230142
0.23545006 0.10506919 0.081765085 -0.055478625 -0.27678955 -0.10974058 0.030157411 0.064347595
0.09907325 -0.23824243 0.251384 0.22156458 -0.13964626 0.023151128 0.45102143 -0.32109398
0.25760472 0.0715787 -0.11255739 -0.012772924 0.36239097 -0.09657516 -0.5345973 0.22654618
-0.22271691 0.011869349 0.2384745 -0.24580152 0.06616528 0.1321928 -0.07581664 0.29989004

fc1.bias f4 [64]
00000000: 1236 1cbe d119 c5bc ee5b ffbd cadd 36be
00000010: f3ef 1bbe 70ee bbbd 9489 c4bd ac66 41bd
00000020: b13d e5bd 0730 c1bd 455a 4a3c 8e94 8c3d
00000030: 3f00 a63d fed2 b53d 69d4 663d 02c3 6fbd
00000040: a39f ca3d 447a 953c 102f 573d dc93 323e
00000050: b6fd f0bc 9990 b4bc ef2e 023e bdca aebe
00000060: 2464 dfbd 6c67 87bd 8cff 46bd b64a 463c
00000070: 786b 4cbe 578f f43d fe6f db3d 9caa fd3c
00000080: 52c6 bc3d 3740 38bc 9fa5 933d a3d7 e73c
00000090: 0c6a f63d 2fbb 0cbe c670 63bc 3115 09be
000000a0: 8b66 65be d9f1 b4bc c42e da3c acbe 0dbd
000000b0: 3c41 443e 8daa 08be f6f2 ecbd 0bbc 4b3e
000000c0: 7bcc 8f3d b104 80bd 9309 253c 25d2 99bd
000000d0: a95b 31be 47e7 06bb f0a8 f4bd 26ab a53c
000000e0: e6fe a7bd f66b 4d3e 6fe8 e93d 6544 203e
000000f0: ef95 0f3e 4d55 0c3e 8366 283d 3315 5f3e
-0.15255001 -0.024060162 -0.12468706 -0.17858043 -0.15228252 -0.09176338 -0.095965534 -0.047217056
-0.11193407 -0.094329886 0.0123506235 0.06864272 0.08105516 0.08878134 0.056354914 -0.058535583
0.098937295 0.018246777 0.052535117 0.17439216 -0.029417854 -0.022041606 0.12713216 -0.34139052
-0.10907772 -0.06611523 -0.048583552 0.012102773 -0.19962871 0.119414024 0.1071472 0.030965142
0.09217514 -0.011245779 0.07209324 0.028301066 0.120319456 -0.1374328 -0.013881868 -0.1338699
-0.22402398 -0.022087978 0.026633628 -0.034605667 0.1916551 -0.1334631 -0.115697786 0.19895951
0.070214234 -0.06250895 0.010073083 -0.07510785 -0.17320122 -0.002058463 -0.11946285 0.020223211
-0.08202915 0.20060715 0.11421286 0.1565109 0.14022039 0.13704415 0.041113388 0.2178543

fc2.weight f4 [32, 64]
00000000: 0523 92be 604f 223e 38c5 263e f556 503e
00000010: f0f4 0dbe 1a08 8fbe 9566 c63c f5f2 093d
00000020: 9b09 16bd 0de8 2dbd 95c7 7c3d 0c6a 863d
00000030: 6f5b 043d 40c9 693d 8c94 793d 991a 8bbe
00000040: 75dc d3bd a95d a0bd dbd7 9bbc afd0 c23d
00000050: cf6b 97bd 1dd2 ff3d 3a17 333d fb87 78bd
00000060: 1e56 50be d1d7 94be ca0b 78bd 2d8a cd3b
00000070: 30f7 2fbd b690 ec3d 13c1 be3d 280d 3ebe
00000080: 9a5f d9bc 0c1e 993e 83fa 413d 47ab 373c
00000090: 5d75 2d3d 49b3 0c3e c6f1 fcbd 8a08 0dbc
000000a0: e464 acbe 1153 c03d 9881 813e 779d d5bd
000000b0: b871 643e a6fb 7cbd ed71 9c3d b45c 16be
000000c0: b026 b03c 6579 9fbd 144d 523d cb74 a53d
000000d0: b18b 25be fe0d 713d 68ee 003d cf83 fa3d
000000e0: 3213 65bd 4547 f23d 4f14 563d 31fd 8b3c
000000f0: 8d2c 983e c4ba 30be f186 aa3d e48c 993e
00000100: 149f b602 a2c6 ac82 7c09 aa82 3188 b382
00000110: 70d4 be82 5599 cc82 7f10 ae82 75f9 ae82
00000120: 86dd 9d82 da3e 8782 eae0 b082 e319 bb82
00000130: c600 b482 21ec b682 1f6e bb82 4766 be82
00000140: 10d6 bd82 65dc b282 72f3 a582 0e21 b282
00000150: 3aba aa82 157f a082 b9cb b082 a170 8b02
00000160: ec09 ae82 128e b382 b8bb bc02 d9a1 c182
00000170: 32c0 9b02 a953 bf82 ee54 ae82 08a4 9c82
00000180: 0de5 ba82 4045 b282 cbb0 a882 cd7d 8982
00000190: 20f6 af82 508c ba82 3cd3 cb82 0897 a702
000001a0: bf9a b502 661b ae82 4e23 ae82 14f4 b082
000001b0: 221b d282 c21f a682 1cfd aa82 ef03 b702
000001c0: 9eaf aa82 d417 ae82 2419 b782 28d8 a582
000001d0: d260 5a82 5851 b282 85bb ad82 b5bd a802
000001e0: ee41 a182 ead1 c282 9497 ac82 7530 b302
000001f0: 6c20 a782 059f a582 4fe0 b202 57b2 b482
00000200: 0758 a202 06b3 a002 8448 b782 bced f802
00000210: 2df4 b582 d2ef aa82 0f44 a382 5cf0 a182
00000220: 686b 9d82 7dc1 a402 e7ca b782 8a33 a482
00000230: ad48 c182 3952 b582 f8fc ae82 3280 b002
00000240: 8f59 aa02 0ec4 b382 9fb9 b482 e450 b182
00000250: fba1 a802 8e92 9982 72d1 bb02 9af4 9e02
00000260: 1b91 b482 98c8 a082 563a 9f82 94d2 ae82
00000270: 1c7b b182 f8a4 ae82 47b7 ab82 1447 b782
00000280: d019 bb02 09b6 bc82 b0e8 a702 aeb6 b482
00000290: 7374 cb02 8688 a182 0c9c b002 a020 ad02
000002a0: 30ca d581 f721 a882 027f 9c82 b3e9 a602
000002b0: cdf5 b882 1707 b182 235a b382 4e5b a682
000002c0: aaa4 9782 f7d6 b102 6553 a502 d03b bd02
000002d0: da69 a482 3549 a582 89cf b382 88ea c402
000002e0: c2e4 9d82 0a8f bb82 c8b5 a682 6c3c 9d82
000002f0: 1c3a a402 1e48 a502 8ae1 b682 da9c b002
00000300: dabb 8e3d 8825 67be ed20 273d 1990 47be
00000310: 8360 7fbe 5ac6 d93e 2f50 99be b057 abbd
00000320: a790 28be f28f 84be f09d 4cbd 1e34 c0bd
00000330: 218a ee3d 5920 0abd b869 903e 36f9 2c3e
00000340: ec25 e7bc 5849 17be 32be af3d c3cf c63c
00000350: 40bf 273e 4e3b 73bd 29a7 533d 3ffa 4e3e
00000360: c214 433e f167 5a3d f66a 323d 8893 0abd
00000370: 4630 3cbe b9ff 6f3d 256d 50bd 6472 143e
00000380: 50fc 753d ba5d cabd d005 7ebc 13da d3bd
00000390: 30d5 cb3e 887b 2bbd 4e7c 5e3d 77f2 1a3e
000003a0: 5411 a8be a7f8 a3bc 35ad a63c 5ecf cc3e
000003b0: 4587 09be e20a a93d 87dc b3be 48c7 15bc
000003c0: bd37 593e 3652 543e 5595 cabc 96e9 3ebc
000003d0: 8b22 a23d 634e a8bd 2606 043e a761 3fbd
000003e0: 2fcd fe3d 9fa3 163d 6309 e33c fa33 94bd
000003f0: 1136 44be 6c2c fc3d 7d73 7e3e 8412 31bd
-0.28542343 0.15850592 0.1628617 0.20345671 -0.13862967 -0.27935869 0.024218837 0.033678968
-0.036630254 -0.04245763 0.061713774 0.065631956 0.03231376 0.057076693 0.06093268 -0.2716873
-0.10344783 -0.07830364 -0.019023826 0.095124595 -0.0739361 0.12491248 0.043723322 -0.060676556
-0.20345351 -0.29070905 -0.060558118 0.0062725754 -0.042960346 0.11551039 0.0931417 -0.18559706
-0.026534844 0.29905736 0.047358047 0.011210269 0.042348254 0.13740267 -0.12350802 -0.008607993
-0.33670723 0.09390844 0.25294185 -0.10430425 0.22309005 -0.06176343 0.07638917 -0.14683801
0.021502823 -0.07786826 0.05134304 0.08078917 -0.1616657 0.058851235 0.031477362 0.12232172
-0.05592651 0.1183 0.05226546 0.017088505 0.2972149 -0.17258745 0.08326519 0.29990304
2.6833803e-37 -2.5387138e-37 -2.4984699e-37 -2.6379856e-37 -2.8039924e-37 -3.0063114e-37 -2.557647e-37 -2.5710183e-37
-2.3196225e-37 -1.9872542e-37 -2.598997e-37 -2.7492039e-37 -2.6449067e-37 -2.6878028e-37 -2.7540387e-37 -2.7976695e-37
-2.789392e-37 -2.628125e-37 -2.4384302e-37 -2.6173722e-37 -2.5086144e-37 -2.3582829e-37 -2.5977807e-37 2.048886e-37
-2.5572697e-37 -2.638323e-37 2.7731863e-37 -2.8451697e-37 2.2885518e-37 -2.8112946e-37 -2.561575e-37 -2.301629e-37
-2.7461712e-37 -2.6194497e-37 -2.4786856e-37 -2.0202547e-37 -2.5855208e-37 -2.741078e-37 -2.9949412e-37 2.4625132e-37
2.668438e-37 -2.5582728e-37 -2.5587266e-37 -2.600097e-37 -3.08723e-37 -2.4409736e-37 -2.5124533e-37 2.689169e-37
-2.5080054e-37 -2.5580679e-37 -2.6903863e-37 -2.4368639e-37 -1.6043897e-37 -2.6201438e-37 -2.5527696e-37 2.4794268e-37
-2.3694666e-37 -2.8626223e-37 -2.536013e-37 2.63295e-37 -2.4557054e-37 -2.4335844e-37 2.6283496e-37 -2.6550985e-37
2.3854286e-37 2.3612641e-37 -2.6931055e-37 3.6576778e-37 -2.673571e-37 -2.5116905e-37 -2.398976e-37 -2.3794783e-37
-2.3130725e-37 2.420869e-37 -2.7005894e-37 -2.4127216e-37 -2.8400515e-37 -2.6642753e-37 -2.57122e-37 2.5934456e-37
2.503066e-37 -2.6414216e-37 -2.6555164e-37 -2.6054241e-37 2.4778354e-37 -2.2565448e-37 2.7597396e-37 2.3356408e-37
-2.653191e-37 -2.3625022e-37 -2.3396433e-37 -2.5687868e-37 -2.6078474e-37 -2.566169e-37 -2.5231388e-37 -2.693023e-37
2.7491996e-37 -2.77286e-37 2.4672e-37 -2.6553476e-37 2.9895008e-37 -2.3735184e-37 2.5950442e-37 2.5438791e-37
-7.853397e-38 -2.4704876e-37 -2.2995039e-37 2.4525645e-37 -2.7177453e-37 -2.6011882e-37 -2.6353422e-37 -2.4443914e-37
-2.2281968e-37 2.6131196e-37 2.4292437e-37 2.7805385e-37 -2.415839e-37 -2.428659e-37 -2.6420805e-37 2.8934226e-37
-2.3200377e-37 -2.755928e-37 -2.4495845e-37 -2.3103757e-37 2.4130987e-37 2.4285964e-37 -2.687195e-37 2.5950904e-37
0.069694236 -0.22572911 0.040802885 -0.19488563 -0.2493916 0.42534143 -0.29943988 -0.083663344
-0.1646143 -0.25891072 -0.04995531 -0.093849406 0.1164744 -0.033722255 0.28205657 0.16891941
-0.028216325 -0.14774072 0.08581199 0.02426899 0.1638155 -0.05938273 0.05167309 0.20212649
0.19050887 0.053321782 0.043559037 -0.033832103 -0.1837779 0.058593486 -0.05088534 0.14496762
0.060055077 -0.09881158 -0.0155043155 -0.10344329 0.39811087 -0.041865855 0.054317765 0.15131555
-0.3282572 -0.020016028 0.020346263 0.4000196 -0.13430507 0.08254029 -0.35129187 -0.009141751
0.21212669 0.20734486 -0.02472941 -0.011652371 0.07916745 -0.08218076 0.1289297 -0.046723988
0.124414794 0.036777135 0.027714437 -0.07236476 -0.1916125 0.1231316 0.24848743 -0.04323055

fc2.bias f4 [32]
00000000: dfc6 dd3d 5574 bb82 943e a482 e85c 433e
00000010: b8a5 ddac 92b3 7c3d d5de 583e 53ab b682
00000020: ba75 0fbd 780a 403e e09e a13e f558 633e
00000030: c430 4f3d 9e8c b682 9493 093e 8428 363e
00000040: d3d0 0e3e f0e1 ecbc ffc0 a73c ed4d a43d
00000050: cec6 a7ba ea5f b73c 71d1 123d 394d 383e
00000060: 3808 a182 335d bcbc d885 e43c 6e1f 303e
00000070: 9248 0dbe 14d4 553e e82c b0bd 8193 423e
0.10828947 -2.7543952e-37 -2.4133552e-37 0.1907841 -6.2995963e-12 0.06169469 0.21178754 -2.6840832e-37
-0.035024382 0.18753994 0.31566525 0.22201903 0.050583616 -2.6823207e-37 0.13435203 0.17788893
0.13946848 -0.02891633 0.02047777 0.08022676 -0.0012800337 0.022384603 0.03584427 0.17998208
-2.3661541e-37 -0.02299366 0.027895853 0.1719949 -0.13797215 0.20881683 -0.08602315 0.19001581

fc3.weight f4 [32, 32]
00000000: 7a6a 2c3e fe46 c282 0c97 b582 a3ac 0ebe
00000010: 2efc faa4 8cfe 043d 969e 963e bb50 ba82
00000020: 5eb2 583c 4a91 d23c ac78 abbd 397e 8b3d
00000030: d403 68bd 150d a802 557a 68bc 90fa 4c3c
00000040: af3b b7bd 78c2 203e c84c 563e 58ee babe
00000050: d862 8ebe 48a1 613d c33e 323e 4660 6a3e
00000060: 6322 a182 812c b5bd 8d99 193e 8ae9 3e3e
00000070: b174 043b 3cde adbb 5e82 dd3d ef52 54be
00000080: c13a c782 c422 8282 a1b2 9282 94a5 cb02
00000090: 98f8 e802 775a c482 27c7 b182 22ca 0003
000000a0: 108a ac02 684a b282 5679 ba82 616c c382
000000b0: b471 a582 7cb0 1b81 6d0e b182 19df b882
000000c0: a7ac b282 e8e1 aa02 7851 b802 002b b182
000000d0: 15b5 b582 7d12 bd82 d9fa c602 537f ba02
000000e0: ce44 7f82 0280 ab82 12df ad82 0213 c002
000000f0: d92e bf02 380d bd82 ee4d 3f83 b467 c082
00000100: ac18 a782 14b3 2582 94b4 6f02 aa7a b982
00000110: e21c c382 0890 b682 9c23 b282 a21d d602
00000120: ffc7 ac82 5a87 c182 07a1 b182 a206 ba82
00000130: cd94 cb82 2189 c302 0e40 ad82 fcd2 ab82
00000140: 3e93 c282 d5c6 b602 15d7 aa82 7af5 a582
00000150: 4a0f a002 0509 ac82 570f ba82 f05f c082
00000160: 86cd 3a82 1c40 ad82 d37c a702 ee2d a782
00000170: cae6 b982 9c27 bd82 46af cd82 9a13 b802
00000180: 1460 9abd 1bb9 b902 c836 a102 d5b7 febd
00000190: 6064 cd02 253e 07be 46b5 103c e5d2 a582
000001a0: 5737 263d b672 65be 41e7 0a3d 5be8 48bd
000001b0: e67a 1a3e 35e4 b902 cc60 eebd e29d fb3d
000001c0: a1a3 06be 802a e8bc 36ed 77be ee64 f9b7
000001d0: 195d 22be ada8 ac3d 8be4 bbbd 83d1 65bd
000001e0: 87b9 a882 ad52 bf3d 7f2b 6e3d 88e2 7dbe
000001f0: 2061 043e ab68 89be 95d1 a139 24ac 32bd
00000200: b631 bb82 6773 ac02 ddb5 a402 9eb6 a282
00000210: 2cf8 3d81 28d4 ab82 fc94 b782 4651 db02
00000220: 164d be82 be3f b382 aef9 c982 58a5 b482
00000230: a28e af82 02ca ba02 70ad aa82 1325 c882
00000240: 4724 b082 e47e 6602 79e6 ad82 836d b782
00000250: 440a a502 1829 b682 50e5 b182 22f5 a782
00000260: 4068 0702 0ebb a282 86f0 ba82 b241 a682
00000270: ec1a 9e82 c0a0 ab82 689b aa02 2cce ae82
00000280: 2643 0e3e 2584 da82 3741 bc82 eff1 06be
00000290: fe93 b92b a2ba 643d 787c afbd ccdf ae82
000002a0: 0d3c c73c dfae 243d ad5f 973e 0278 543e
000002b0: 58e6 8cbd bbe8 b502 29b3 9fbe fc4c 883e
000002c0: 20a0 25be d610 7d3e 3529 0c3e ad39 4dbe
000002d0: 908b ba3d 439b 6fbc 16bb 4a3d 5aee bd3d
000002e0: 5292 1e82 ca7a 10bd 36e6 b9bd 89c2 4a3d
000002f0: 07af 04be def8 073c cabf 8c3e 97b1 563d
00000300: d5ed dfbc 02ff a802 82a8 b482 9477 c23d
00000310: d3bf 1035 17b1 223e 8163 343e 65fa ac82
00000320: 58c2 933e 9d5e 5d3d 20af 7e3e 3087 073e
00000330: 576a a13d e32d a402 e100 a03d d7ae 353d
00000340: 8a46 0c3d bc86 163f 211f 36be 36c0 f53d
00000350: e12c 0fbe 52e6 003c 9aa6 1dbe 33d0 44be
00000360: 7386 b282 f045 023e 48e4 76bd c458 97bc
00000370: 6acf a73e 17dd 9a3e 986b 0c3e 6195 5fbe
00000380: ccd0 0b3e 5637 a482 a8d7 a882 8a06 1dbe
00000390: 976a b882 ab19 40bd 546b b73d 1a83 b502
000003a0: 60f2 4b3e a040 8cbe e7cc 91be d8d0 883c
000003b0: e1bd a13d 1456 b602 9533 373e 9139 35be
000003c0: 253f 31bc 23b0 6b3e a96b 7bbe 3c43 36bf
000003d0: fdcc be3e f049 c9b9 f6f5 ebbc b3a2 0dbe
000003e0: 2f8c 5f03 2416 543c b214 8c3e b41b 03bd
000003f0: 24b2 873e f509 a9bd d1d7 4dbe 4e3d 5abe
0.16837493 -2.8546486e-37 -2.6682256e-37 -0.13933043 -1.08847426e-16 0.032469317 0.29417866 -2.737658e-37
0.01322612 0.025704045 -0.08372626 0.068111844 -0.056644276 2.469289e-37 -0.0141893225 0.012510911
-0.089469306 0.15699184 0.20927727 -0.36509967 -0.27809787 0.05508545 0.17406754 0.22888288
-2.367656e-37 -0.08846379 0.14999981 0.18643776 0.0020211155 -0.0053060334 0.10815881 -0.20734762
-2.9274145e-37 -1.9121738e-37 -2.15553e-37 2.9923206e-37 3.4232022e-37 -2.8851536e-37 -2.612212e-37 3.7847856e-37
2.5352373e-37 -2.6197456e-37 -2.7399887e-37 -2.8714881e-37 -2.4309833e-37 -2.8595625e-38 -2.6016093e-37 -2.7164422e-37
-2.6253847e-37 2.5108919e-37 2.708313e-37 -2.6032493e-37 -2.6699496e-37 -2.7781666e-37 2.9237465e-37 2.7403324e-37
-1.8754187e-37 -2.5199665e-37 -2.5548101e-37 2.8222774e-37 2.8091817e-37 -2.7778641e-37 -5.6219314e-37 -2.8271387e-37
-2.4552606e-37 -1.2173678e-37 1.761077e-37 -2.7253713e-37 -2.8669253e-37 -2.6825166e-37 -2.6175188e-37 3.1461482e-37
-2.538792e-37 -2.843649e-37 -2.6100238e-37 -2.733405e-37 -2.9913577e-37 2.8731383e-37 -2.545683e-37 -2.524729e-37
-2.859025e-37 2.685662e-37 -2.5102706e-37 -2.4385468e-37 2.3518663e-37 -2.5278305e-37 -2.7339048e-37 -2.826693e-37
-1.3724104e-37 -2.5456862e-37 2.461009e-37 -2.4564807e-37 -2.7315773e-37 -2.7793789e-37 -3.0222645e-37 2.704762e-37
-0.07537857 2.7289552e-37 2.3688267e-37 -0.12437407 3.0179655e-37 -0.132073 0.008832281 -2.4365619e-37
0.04058012 -0.2240704 0.033911947 -0.049049716 0.15085945 2.7314291e-37 -0.11639556 0.12285973
-0.13148357 -0.028340578 -0.24211583 -2.9730112e-05 -0.15855826 0.0843061 -0.091744505 -0.05610801
-2.4791869e-37 0.09341941 0.05814695 -0.24793446 0.12927675 -0.26837668 0.00030864464 -0.043621197
-2.7505713e-37 2.5339366e-37 2.4202019e-37 -2.3908578e-37 -3.4891872e-38 -2.5247963e-37 -2.6974946e-37 3.2225807e-37
-2.7962236e-37 -2.6338272e-37 -2.9677605e-37 -2.6543526e-37 -2.5795806e-37 2.744619e-37 -2.5078803e-37 -2.9408638e-37
-2.5881698e-37 1.6934147e-37 -2.555235e-37 -2.695229e-37 2.4250463e-37 -2.6766083e-37 -2.6139431e-37 -2.4679144e-37
9.948152e-38 -2.3911125e-37 -2.7468297e-37 -2.4429215e-37 -2.3231466e-37 -2.5218458e-37 2.5068454e-37 -2.568534e-37
0.13892803 -3.2108068e-37 -2.7661549e-37 -0.13178228 1.3186117e-12 0.05584205 -0.085686624 -2.5695455e-37
0.024320627 0.040205833 0.29565182 0.20748904 -0.06879872 2.672914e-37 -0.31191376 0.26621234
-0.16174364 0.24713454 0.13687594 -0.20041533 0.09108651 -0.01462442 0.049494825 0.092739776
-1.1649999e-37 -0.03527335 -0.090771124 0.04950193 -0.12957393 0.008299081 0.27490073 0.052415457
-0.027335087 2.4831749e-37 -2.6545342e-37 0.09495464 5.392332e-07 0.15887867 0.17616083 -2.5416848e-37
0.2885921 0.05404531 0.24871492 0.13235164 0.07881611 2.4123972e-37 0.07812668 0.044356193
0.03424696 0.5879934 -0.17785312 0.11999552 -0.13981964 0.007867413 -0.15395585 -0.19220047
-2.623192e-37 0.12721992 -0.0602763 -0.018474944 0.32775432 0.30246803 0.13712919 -0.21834327
0.13653868 -2.4129395e-37 -2.4809162e-37 -0.15334526 -2.709755e-37 -0.04689948 0.08956018 2.6670808e-37
0.19916677 -0.27393055 -0.2847664 0.016701147 0.07897545 2.6791903e-37 0.1789077 -0.17697741
-0.0108182775 0.2301641 -0.24552788 -0.7119634 0.3726577 -0.00038392795 -0.028803807 -0.13831596
6.5694733e-37 0.012944732 0.2735954 -0.03200884 0.26503098 -0.08253852 -0.20101859 -0.21312448

fc3.bias f4 [32]
00000000: 54bb 8a3e 4a91 a482 77a8 c482 1bea 603e
00000010: 90c7 b582 9d85 4f3e 2f19 bf3d d747 6e3e
00000020: 0089 a93e 144a af82 5066 b982 926b 09be
00000030: 85ec bf82 7454 d1bd f12f e73c f6a0 b782
00000040: 9b2b b682 bb56 503e f829 a782 dd67 b682
00000050: ca80 a982 99fd b682 f599 003d 9aa2 b182
00000060: 94d6 bb82 6731 0f3e 38f4 f53d cc22 a33e
00000070: 52f0 aa82 cedf 9d82 0606 333e edb2 b182
0.27096045 -2.4181026e-37 -2.8896306e-37 0.21964304 -2.6710103e-37 0.20265813 0.09330975 0.23269592
0.33112335 -2.5756458e-37 -2.7242031e-37 -0.13419941 -2.8200683e-37 -0.10221186 0.028221102 -2.698182e-37
-2.6767525e-37 0.20345585 -2.4562533e-37 -2.680211e-37 -2.490624e-37 -2.6888054e-37 0.031396825 -2.6101141e-37
-2.7600342e-37 0.13983689 0.12009472 0.31862485 -2.5117192e-37 -2.3197534e-37 0.17482767 -2.611051e-37

fc4.weight f4 [5, 32]
00000000: 164a 96bd 84a1 b482 1084 c102 64b8 e33d
00000010: 027a b702 532c 123d 28cd 0c3e 3f63 2fbe
00000020: ae3a 203e f6c3 9182 5d46 3883 686b fcbc
00000030: e15c c202 1c79 803e c8be dbbc 3c38 b002
00000040: c8f1 b982 4f23 013e c02a ba02 a90c cb82
00000050: f885 bb82 810e a982 79f4 16bd dceb c482
00000060: 2f3b c782 a12a 573e 9e04 053e 36c5 8c3e
00000070: 3000 ae82 71c9 ae02 2c5c 79bd 7bce c382
00000080: 3bed 0fbe f718 bb02 35e8 c102 b8d2 a03d
00000090: 7542 b002 d13c 8f3d 34dd 693e 5de0 47bd
000000a0: a3fa 8e3c cba1 8902 1040 c982 673a 1b3e
000000b0: 4d5a b402 cef9 a83c c4b4 b93d cceb b682
000000c0: 9092 b202 e8e7 ce3d 0345 ae82 7ce0 a582
000000d0: 8588 b302 0704 cf82 2229 68bd 46ba b982
000000e0: ba67 c302 1b30 613d 766d 7fbd 95ff 73be
000000f0: db0d a782 1cc1 ac02 68d6 493d 911a b502
00000100: 32d3 e33d 3f3b bf02 abd2 cd02 0dd4 2c3d
00000110: 1faf b402 7f6d 983e 6805 ad3d d8bd ffbc
00000120: 063d f0bc 36ed ee02 0af5 e102 750b 17bd
00000130: eb72 bc82 1d26 ec3d 29e5 8f3e dc2a c582
00000140: 30d9 b402 6f01 f8bc 2930 a602 966c a582
00000150: f34d a982 1d26 c782 5858 dbbc e619 bf82
00000160: 44a4 d902 6d84 e1bd a68f 07be 184e 7c3d
00000170: 3ee3 9e82 7071 b882 9626 2e3d 961a b282
00000180: 021a 543e 33eb c682 06bd ad02 b246 bd3c
00000190: 04f6 bc82 12e0 55bd 0038 f2bd 7e77 1dbe
000001a0: af2d e13d 301b d402 6c06 4c82 42ce d5ba
000001b0: f2c1 b382 565a 42be 7081 9a3c 4f9f b082
000001c0: 1272 b382 2aff 2b3e 157c a382 e952 ab02
000001d0: 9ca9 b982 a237 c102 4c57 043d 8de2 b982
000001e0: 448b c602 0dab 64be 3dae f63d 4b04 c73c
000001f0: 70d2 bf02 f7d7 a702 05a5 973e decb c282
00000200: fce8 483e 6d2a ad82 d74c b682 fcd3 9f3c
00000210: 8440 c302 30a3 f23d 743e 1c3e 8195 6c3e
00000220: 11eb 0dbe e834 1883 4445 af81 f5be 09be
00000230: fe27 be02 0008 a03e e781 48be 3724 b002
00000240: 2582 ba02 65a0 5b3d 3899 b202 2837 b902
00000250: 8b21 b182 23fb ab02 229f 51be bfdb bd02
00000260: 2feb b282 0943 8dbd 9aed 3b3e bce3 32bc
00000270: 2625 af02 283a b502 ef32 9f3c 2604 d602
-0.073383495 -2.6541328e-37 2.8434601e-37 0.11119154 2.6959462e-37 0.035686802 0.13750136 -0.17127703
0.15647385 -2.1418311e-37 -5.4153513e-37 -0.030812934 2.8559048e-37 0.250924 -0.02682437 2.5893153e-37
-2.7322082e-37 0.12611125 2.735478e-37 -2.9835436e-37 -2.7554075e-37 -2.4840643e-37 -0.03685424 -2.8934988e-37
-2.9274392e-37 0.21012355 0.12990043 0.2749421 -2.556711e-37 2.5682624e-37 -0.060878918 -2.8771189e-37
-0.1405534 2.749151e-37 2.8492082e-37 0.078526914 2.589902e-37 0.06994022 0.22838289 -0.048797954
0.017453497 2.0223205e-37 -2.9571066e-37 0.15158997 2.6500453e-37 0.020626929 0.090676814 -2.6877837e-37
2.6238872e-37 0.10102826 -2.5606613e-37 -2.4373419e-37 2.6380044e-37 -3.0418228e-37 -0.056679852 -2.7290223e-37
2.871221e-37 0.054977518 -0.06236025 -0.23827966 -2.4546397e-37 2.5383968e-37 0.04927674 2.6610808e-37
0.11124267 2.8098933e-37 3.024296e-37 0.042194415 2.6549137e-37 0.2977104 0.08448297 -0.031218454
-0.029325973 3.510711e-37 3.3201424e-37 -0.03687616 -2.7690077e-37 0.11530707 0.28104523 -2.8971148e-37
2.6573282e-37 -0.030274121 2.441915e-37 -2.4306896e-37 -2.4877059e-37 -2.9262298e-37 -0.026775524 -2.8079793e-37
3.1979568e-37 -0.11011586 -0.13238391 0.061597914 -2.3346444e-37 -2.710148e-37 0.042517267 -2.617001e-37
0.20713046 -2.9228483e-37 2.552856e-37 0.023105 -2.7765323e-37 -0.052215643 -0.118270874 -0.15377614
0.109950416 3.1166205e-37 -1.4989396e-37 -0.001631208 -2.6413005e-37 -0.18979773 0.018860549 -2.5952314e-37
-2.636716e-37 0.16796556 -2.4021917e-37 2.517378e-37 -2.7280658e-37 2.8390733e-37 0.032309815 -2.731334e-37
2.917342e-37 -0.22330876 0.12044952 0.02429404 2.8185713e-37 2.4662402e-37 0.29618087 -2.8622752e-37
0.19620126 -2.5444417e-37 -2.67866e-37 0.019510262 2.8689705e-37 0.11847532 0.15258199 0.23103906
-0.13859202 -4.472952e-37 -6.438424e-38 -0.1345175 2.7940945e-37 0.31256104 -0.19580804 2.5881662e-37
2.7404943e-37 0.05361976 2.6242693e-37 2.7214965e-37 -2.6027065e-37 2.5270337e-37 -0.2047086 2.7897182e-37
-2.6289738e-37 -0.068975516 0.18352357 -0.010918554 2.573526e-37 2.662894e-37 0.019433467 3.1446855e-37

fc4.bias f4 [5]
00000000: 58e6 6e3e 1d39 883e b885 813d 21f9 443e
00000010: 4c00 243e
0.23330057 0.26606074 0.06324333 0.1923566 0.16015738
