results/model/best_model_ANN_mx_descriptor.pth (torch, 38881 bytes, 8 tensors)

fc1.weight f4 [64, 4]
000000 4f 5d a2 3e 65 55 14 3e f8 4e 18 bf 36 31 3f 3e
       0.31711814 0.144857 -0.59495497 0.18671116
000010 3d dc b2 bd 2d 52 94 bd 8b a0 f4 bd 85 76 7e bd
       -0.08733413 -0.07242236 -0.11944684 -0.062124748
000020 2b 3e bd 82 3d 6e 8e 82 fc 7b a7 82 6a 71 a9 82
       -2.7806737e-37 -2.0928298e-37 -2.4609608e-37 -2.4897415e-37
000030 2e 25 f7 80 f8 62 82 81 45 26 f1 82 89 15 b6 82
       -2.2696705e-38 -4.789647e-38 -3.5433733e-37 -2.6754857e-37
000040 46 bb 33 bf 08 04 e3 be 86 cb b5 3d ed 1c 9f 3d
       -0.7020763 -0.44339013 0.0887671 0.07769189
000050 2e 46 b5 82 a2 88 b3 82 4b 44 ad 82 d4 52 b9 82
       -2.663584e-37 -2.638011e-37 -2.5459264e-37 -2.7230848e-37
000060 ae 9c b7 82 52 af be 82 45 02 2e 01 e6 af b2 82
       -2.6979363e-37 -2.801862e-37 3.196038e-38 -2.625571e-37
000070 f9 47 24 3d 29 aa 9a bc 91 dd 9e be 2d 16 8f bd
       0.0401077 -0.018879967 -0.31028417 -0.069866516
000080 e0 46 0b 3e 4d 98 92 3d 1a 35 de be 33 84 87 be
       0.13601255 0.07157955 -0.43399888 -0.26468047
000090 ed d3 5b bd 25 4f e1 bd 5c 6f 09 3e 8d ce 24 bf
       -0.053668905 -0.11001424 0.13421386 -0.6437767
0000a0 c6 c3 df b7 33 30 16 3e 01 62 83 be 6e 27 bc bd
       -2.6674836e-05 0.14666824 -0.2566071 -0.09187208
0000b0 36 75 45 bd cb 66 b6 bd ca 61 d8 3d 77 52 f6 bc
       -0.048207484 -0.08906325 0.10565527 -0.03006862
0000c0 a0 bb 23 3e 19 1e ae 3d 40 fc 5a bd d1 0b b2 3e
       0.15989542 0.085018344 -0.05346322 0.3477464
0000d0 10 99 a2 be 24 c7 13 be 48 bb 3b 3f bd 50 7d bd
       -0.31757402 -0.14431435 0.73332644 -0.061844576
0000e0 5c ad c8 be 52 ee bf 3e 61 67 88 be 78 20 a2 3d
       -0.39194763 0.3748651 -0.26641372 0.07916349
0000f0 d5 e2 6c 3e cb b8 2c bf b7 61 16 be 8b 6c 1e be
       0.23133405 -0.6746947 -0.14685713 -0.15471093
000100 4e 28 bc be d4 d8 0b be 19 9b fd 3d 8d 7d 85 3e
       -0.367495 -0.13656932 0.12383098 0.2607235
000110 30 25 2f 3e 11 35 6c 3d a0 37 d0 3b 46 33 b3 bb
       0.1710403 0.057667796 0.0063542873 -0.0054687588
000120 12 7e b9 82 ba e9 a6 82 77 ea bb 82 bc f6 b5 82
       -2.7255668e-37 -2.452566e-37 -2.7611757e-37 -2.6737178e-37
000130 b6 2e 53 be cb 39 28 3e 07 60 05 3d f4 e9 d2 3e
       -0.20623288 0.16428296 0.032562282 0.41194117
000140 65 5d b0 82 ee dc c9 82 72 6d 9c 82 67 76 a5 82
       -2.5914482e-37 -2.9661103e-37 -2.2984958e-37 -2.431253e-37
000150 f1 02 16 be 06 6f 01 be 27 3e 9c bd da 8e 1f be
       -0.1464956 -0.12640008 -0.07629042 -0.15581837
000160 67 32 12 3e d0 38 2e bf 72 15 21 bf d9 c4 4b bd
       0.1427704 -0.6805544 -0.6292335 -0.049748275
000170 89 1f fc bb 50 d0 c5 ba 9f aa 1d 3f 42 a7 58 bd
       -0.007694189 -0.0015091989 0.6158847 -0.052893884
000180 f2 80 6a be f6 da eb be f4 2b 12 3e 6a ed d9 bd
       -0.22900751 -0.4606549 0.1427458 -0.10640986
000190 96 9f 0e 3e dd f6 e7 be 42 73 61 3e 40 58 6e be
       0.13928065 -0.4530553 0.22016624 -0.23275852
0001a0 e0 ef 5f 3e 37 f9 f0 3e 40 a4 31 be 1b 29 0a be
       0.21868849 0.47065136 -0.17347813 -0.13492243
0001b0 e4 bf a7 82 43 e8 bd 82 fa 3e a4 82 bb 8e bd 82
       -2.4648584e-37 -2.7904366e-37 -2.413378e-37 -2.7852977e-37
0001c0 25 ad b3 82 64 39 03 82 6c 7b c7 82 5a 4f c3 82
       -2.6401066e-37 -9.64083e-38 -2.9311263e-37 -2.869822e-37
0001d0 34 9d 93 bd 0d 0b 6a 3e de ab ae 3d 75 e1 9c 3e
       -0.072077185 0.22855778 0.08528875 0.3064076
0001e0 bb 41 06 be 65 60 e5 3e 84 64 65 bf bf 6c a0 bd
       -0.13111012 0.44800106 -0.896065 -0.07833242
0001f0 01 f9 c3 82 05 07 a0 82 ee 12 b9 82 e4 12 9a 82
       -2.8795596e-37 -2.3513916e-37 -2.7194172e-37 -2.263911e-37
000200 f1 0b 4e bf 10 f4 ea be ef c4 d6 3e 52 56 83 be
       -0.8048697 -0.4588933 0.41947123 -0.25651795
000210 ad c8 ac 82 bc 5b aa 82 23 7b c5 82 6b d7 b1 82
       -2.538831e-37 -2.5031908e-37 -2.9017225e-37 -2.6131456e-37
000220 48 ee 95 bc a9 cc f1 bd f1 aa 11 be ec e5 55 bc
       -0.018302098 -0.11806614 -0.14225365 -0.013055306
000230 71 b0 de 3e 1b 92 03 3e 0d a5 25 bd f1 6c ae bd
       0.4349399 0.12848704 -0.040440608 -0.08516873
000240 1a ea 16 bd 77 59 ae 3d 4a 18 52 be 49 e5 03 3f
       -0.03684435 0.08513158 -0.20517078 0.51521736
000250 d5 45 ac bd 33 7c 54 3d 43 12 42 3e 3e 71 62 be
       -0.08411757 0.051876258 0.18952279 -0.22113511
000260 1c 6b d9 bc d2 a2 10 3f 74 13 e1 3d 78 16 eb be
       -0.026540332 0.56498444 0.109900385 -0.4591558
000270 27 b1 31 3e 78 8b b8 be f5 35 15 3d 6e 19 56 3d
       0.17352735 -0.36043906 0.03642841 0.052270345
000280 6d a9 49 bd 3d 84 83 be e1 aa 54 3d 04 4f 00 3f
       -0.049233843 -0.25686827 0.051920775 0.5012057
000290 b2 fc ae 82 76 66 c1 82 a2 9a ab 82 67 ee a9 82
       -2.5712042e-37 -2.841761e-37 -2.5214947e-37 -2.4969154e-37
0002a0 da e6 ac 82 72 a7 bc 82 44 c3 ad 82 b3 a9 b6 82
       -2.540563e-37 -2.7720226e-37 -2.5532142e-37 -2.68399e-37
0002b0 36 10 87 be c3 0c 85 be 75 26 49 bf ee ab 56 3e
       -0.26379555 -0.259863 -0.78574306 0.20964023
0002c0 f5 a4 b5 82 38 03 ac 82 3f d0 a7 82 c6 0f ac 82
       -2.669024e-37 -2.5274976e-37 -2.4657972e-37 -2.5282182e-37
0002d0 2d fb 0a 3e 6d aa 06 bf 6c 15 0c bf e6 3f 1a bb
       0.13572378 -0.526038 -0.5472019 -0.0023536622
0002e0 ec c8 ab 3c 37 0b 15 bf e1 88 12 bf 2f 07 1a bf
       0.02096983 -0.5822024 -0.5724011 -0.6016721
0002f0 c8 57 95 3e 21 1a 7d bf d6 67 24 3c 53 6a c5 3c
       0.29168534 -0.98867995 0.010034522 0.02409855
000300 e2 e4 70 3e c8 cb aa 3e 00 1a 0f 3d 58 98 fb be
       0.23524812 0.33358598 0.034936905 -0.49139667
000310 cc 52 0a bf cb c8 c9 3d 4f 47 b1 3e 3a d8 c8 bd
       -0.5403259 0.09852751 0.34624717 -0.09806867
000320 76 04 20 be 72 5f 40 3f 50 be 8f bd 1f f7 68 bd
       -0.15626702 0.7514564 -0.07018721 -0.056876298
000330 62 a5 49 3e c4 0b 0c 3e d1 07 14 3e 7b c5 6d 3d
       0.19691995 0.13676363 0.14456107 0.05804966
000340 f2 a2 38 be 24 77 af be f2 7c be be f6 53 93 3c
       -0.18030909 -0.34270585 -0.372047 0.017984372
000350 ef d3 44 3e 7a 6b 0c 3e 39 aa b0 3d be 70 32 bf
       0.19221471 0.13712874 0.086262174 -0.6970328
000360 6e cf 89 82 b0 d2 ee 80 69 c2 a8 82 f5 38 95 82
       -2.02494e-37 -2.1932429e-38 -2.4796967e-37 -2.1926274e-37
000370 32 1f b9 3d 64 07 98 3c c2 6b 83 bf 01 04 2b 3c
       0.09039153 0.018558212 -1.026726 0.010437966
000380 3d 36 07 be 7e 83 34 be f9 87 32 3a 35 a6 5f 3e
       -0.13204284 -0.17628285 0.00068104226 0.21840747
000390 2d 80 19 bd 02 53 86 be 20 b3 49 bd fb be 02 be
       -0.037475754 -0.26235205 -0.049243093 -0.12768166
0003a0 67 d8 b9 82 9d 75 8d 82 3f 8c 4a 83 00 d4 af 82
       -2.7307516e-37 -2.0785595e-37 -5.952346e-37 -2.583562e-37
0003b0 39 23 9b 3e a7 a8 10 bd 65 b7 bb 3c b4 1a 4b be
       0.3030031 -0.03531709 0.022914598 -0.19834405
0003c0 c8 8c 9b 82 1c d6 bb 82 b0 a6 b9 82 38 19 a7 82
       -2.2856008e-37 -2.7600073e-37 -2.727898e-37 -2.455292e-37
0003d0 dd dc c5 82 92 dd 30 82 97 a7 b6 82 fb 5d b6 82
       -2.9073318e-37 -1.2994025e-37 -2.6838688e-37 -2.6796439e-37
0003e0 11 67 eb 3d be 3b da be 2f 92 2c ba b4 70 d3 be
       0.11494268 -0.42623705 -0.00065830623 -0.41296923
0003f0 ee b5 b0 bd a5 83 1b 3b 29 f6 55 be 86 08 fd bd
       -0.0862845 0.002372959 -0.20894684 -0.12355141

fc1.bias f4 [64]
000000 9b 33 9f bf b8 25 ff 3d 35 53 b5 82 5a 23 a1 82
       -1.2437624 0.12458366 -2.6643318e-37 -2.3677115e-37
000010 c2 0c 1c 3f 12 8b a1 82 96 6e b3 82 c8 36 7d 3f
       0.60956967 -2.3736646e-37 -2.636516e-37 0.98911715
000020 23 df 94 3e 82 9f 24 3f df 46 3a 3f 6b 7f d8 be
       0.2907649 0.6430589 0.7276439 -0.42284712
000030 3b 94 75 bf 6c 1c a8 be 17 13 fa 3e 69 64 41 bf
       -0.95929307 -0.32834184 0.4884269 -0.7554384
000040 4e f7 19 3e 98 fc 85 bf 43 80 a5 82 4b c5 24 bf
       0.15035746 -1.046771 -2.431819e-37 -0.64363545
000050 8d d4 a5 82 c6 e2 0e 3e b6 b1 75 be 08 a9 8e bf
       -2.436657e-37 0.13953695 -0.23993573 -1.1145334
000060 a0 22 20 3f fc da c1 be 80 98 80 bf 37 d1 a7 82
       0.62552834 -0.37862384 -1.0046539 -2.4658528e-37
000070 ae 12 d8 80 69 ad c4 be cc b3 38 3f d7 02 b0 82
       -1.9843168e-38 -0.3841355 0.7214935 -2.5862506e-37
000080 91 62 e6 be 84 76 b7 82 fd e3 0f 3e b1 56 92 bf
       -0.44997075 -2.6957458e-37 0.14051814 -1.1432706
000090 8c b7 14 be 77 f8 17 3f d9 b9 09 bd 95 2a 6e bf
       -0.14523143 0.593635 -0.033624504 -0.93033725
0000a0 80 6e 17 bf cb bd b7 82 ae de b1 82 ea af 9b 3e
       -0.59152985 -2.699837e-37 -2.6135624e-37 0.3040765
0000b0 77 48 a6 82 3c 22 81 be c9 2f 8a 3e ad 00 3e bf
       -2.44331e-37 -0.2522143 0.26989582 -0.7421978
0000c0 58 76 de be 76 2c 46 3f c4 e7 2e 3f 5a fc 92 bf
       -0.43449664 0.7741159 0.68322396 -1.1483262
0000d0 4f 68 7d 3f e0 bd 2c bf d8 df 28 80 8e d3 78 3e
       0.9898729 -0.67477226 -3.75372e-39 0.24299452
0000e0 52 33 30 3e ee d2 67 3f e6 94 9f 82 1b 7d a2 bf
       0.17207077 0.9055623 -2.3448414e-37 -1.2694429
0000f0 9a 24 a1 82 e5 76 64 82 4e f3 c4 bc 77 ce ad 3e
       -2.3677832e-37 -1.6784916e-37 -0.024041798 0.33946583

fc2.weight f4 [64, 64]
000000 d4 02 d0 02 52 49 98 02 ae 2a 4b 82 98 1b 19 83
       3.0564476e-37 2.2376476e-37 -1.4926333e-37 -4.4994335e-37
000010 2e f7 a6 02 e6 dc 96 82 4f a8 bb 82 65 1d b0 82
       2.4533382e-37 -2.2167309e-37 -2.7573785e-37 -2.5877747e-37
000020 0c 22 b9 02 e3 10 b1 82 5a 3d a7 82 b7 e9 b9 82
       2.7202849e-37 -2.6017505e-37 -2.4573659e-37 -2.7317453e-37
000030 df e0 af 82 dc 39 ba 82 7d 1e a8 82 09 24 b5 82
       -2.5843009e-37 -2.7363453e-37 -2.470288e-37 -2.6616243e-37
000040 e6 9a aa 02 67 7e a0 82 f0 58 b6 82 91 ae b6 02
       2.5068162e-37 -2.3582438e-37 -2.6793544e-37 2.6842693e-37
000050 70 ad 2b 83 58 1e 0a 83 e6 46 ae 82 8c eb b3 82
       -5.045148e-37 -4.058939e-37 -2.5607696e-37 -2.6436883e-37
000060 a4 ae b6 02 e6 f2 a7 82 37 3f c0 02 d0 77 a4 82
       2.6842735e-37 -2.4677861e-37 2.8248148e-37 -2.4166403e-37
000070 41 e9 63 82 6c 0d b3 82 05 f4 ca 02 0d e1 07 82
       -1.6744267e-37 -2.630939e-37 2.9821293e-37 -9.98282e-38
000080 d1 a0 ac 82 22 ad 9a 81 ca cb a2 82 ff 74 a4 82
       -2.5365433e-37 -5.68191e-38 -2.392073e-37 -2.4164787e-37
000090 02 5e a9 82 ac 3a b5 82 a8 04 be 82 e1 75 b8 82
       -2.4886276e-37 -2.6629236e-37 -2.7920663e-37 -2.710403e-37
0000a0 51 2b cd 02 af 34 aa 02 cc bc 93 81 b0 17 c3 82
       3.0146905e-37 2.5009494e-37 -5.427018e-38 -2.866627e-37
0000b0 8e 19 a7 82 f4 c4 bb 82 65 d2 a7 82 6a 45 ad 82
       -2.4553112e-37 -2.7590226e-37 -2.4659205e-37 -2.5459907e-37
0000c0 7c c6 b0 82 46 0f ab 82 5a 8b bd 82 88 78 b8 82
       -2.59748e-37 -2.5134958e-37 -2.7851038e-37 -2.7105552e-37
0000d0 37 af af 82 49 91 ad 82 45 bb 24 82 a2 16 bb 82
       -2.5814507e-37 -2.5503455e-37 -1.2102561e-37 -2.749017e-37
0000e0 28 c2 b9 02 81 02 ba 82 98 b6 23 83 e5 e2 b9 02
       2.7294747e-37 -2.733168e-37 -4.8111e-37 2.7313538e-37
0000f0 8b 26 6c 02 ae 8d 96 81 33 9d a2 82 65 33 ad 82
       1.7349603e-37 -5.53046e-38 -2.3893989e-37 -2.5449564e-37
000100 9a 26 b2 82 f2 77 aa 02 c8 fb a9 82 86 1a 5b 83
       -2.6176906e-37 2.50481e-37 -2.4976834e-37 -6.4388763e-37
000110 69 98 4f be 8e 58 af 82 1c 12 c3 01 fb b1 f5 be
       -0.20272984 -2.5764767e-37 7.165767e-38 -0.4798735
000120 74 f5 95 82 72 5f 63 3e 8b 08 b9 be fc f5 a0 bd
       -2.2034465e-37 0.22204378 -0.3613933 -0.07859418
000130 dd 84 ce be d2 51 52 3e ae 44 16 3d 57 df 94 82
       -0.40335742 0.20539024 0.03668659 -2.1874836e-37
000140 33 16 4e 3d 4c 19 97 02 d7 97 8a 82 a9 21 82 3d
       0.05031414 2.2201976e-37 -2.036443e-37 0.063540764
000150 57 07 2e 83 82 1b b1 02 5c 8b b1 82 64 d6 6c 3e
       -5.114243e-37 2.6023601e-37 -2.60878e-37 0.23128659
000160 33 7f 07 bc 4f 4a ae bd 9c 76 62 82 e9 17 90 02
       -0.008270073 -0.08510267 -1.6637897e-37 2.1172622e-37
000170 be ba b0 02 40 f7 80 3c a3 f3 a4 82 a8 d6 a1 82
       2.596806e-37 0.015742898 -2.4237475e-37 -2.378003e-37
000180 a1 93 37 be 4c 17 b6 02 ed 17 8f 82 01 4e 1d bf
       -0.1792741 2.6755868e-37 -2.1025694e-37 -0.6144715
000190 9c dc 79 bd c2 ed 45 3c 72 04 a7 3d 12 0f 15 bd
       -0.061001405 0.012080612 0.08155145 -0.036391325
0001a0 94 98 0d 3e f3 39 ba 02 82 6c a9 02 e4 85 b3 02
       0.13827735 2.7363505e-37 2.4894599e-37 2.6378536e-37
0001b0 78 7a aa 02 2e 79 ad 02 ca 0d a3 82 19 40 97 be
       2.5049549e-37 2.548962e-37 -2.3958612e-37 -0.2954109
0001c0 40 35 25 bc 3e 3d 53 3d 02 d9 10 be 00 c0 54 3b
       -0.010083497 0.051572077 -0.14145282 0.0032463074
0001d0 2e 43 6a be d2 5a 17 3d cf f1 03 83 0d e1 50 03
       -0.2287719 0.036951847 -3.8775023e-37 6.138405e-37
0001e0 ea b1 a9 3d 2c 74 0e be 80 5a 24 00 fd 11 0e 3d
       0.082858875 -0.13911504 3.338543e-39 0.034685124
0001f0 a0 dc a9 02 8b 81 ab 02 4b 6e 63 be 28 d2 ee 20
       2.495895e-37 2.5200546e-37 -0.22210042 4.0457838e-19
000200 8a a8 bd 82 74 cb 55 bd 3a ed 32 03 c7 05 12 83
       -2.786779e-37 -0.05219598 5.258182e-37 -4.2912176e-37
000210 50 48 ba 3e c0 99 b2 82 5a 00 c8 82 5b fe bd bc
       0.36383295 -2.6242997e-37 -2.938756e-37 -0.023192575
000220 c7 c1 c3 bc 0f e3 53 3d eb 59 99 bc fb 2d df 9d
       -0.023896111 0.05173021 -0.018719634 -5.907515e-21
000230 5f 46 f7 bc 48 09 05 be 88 e7 b8 3d 7d 92 c2 02
       -0.030184923 -0.12991822 0.09028536 2.8589818e-37
000240 27 0e c3 3d 55 76 b4 02 b7 2c 81 02 cb 5f a7 3d
       0.09524184 2.6516542e-37 1.8980511e-37 0.08172568
000250 38 62 c4 01 a0 e1 50 bd f0 db 9d 82 c2 ce 01 bf
       7.2139966e-38 -0.050996423 -2.3195315e-37 -0.5070611
000260 f0 30 da 3d 73 87 64 3d 70 d3 b5 02 58 f1 9d 82
       0.10653865 0.055793237 2.6716919e-37 -2.3207601e-37
000270 90 ec 06 03 23 35 c3 bd 24 b5 42 bb a6 87 9d 82
       3.965062e-37 -0.095316194 -0.002971002 -2.3146935e-37
000280 15 11 5d be f1 50 af 02 9d 8f c6 bd 2e 0f ad 82
       -0.21588548 2.5760397e-37 -0.09695361 -2.5428778e-37
000290 24 14 f4 bd be a5 55 bd 40 fc 3b 3e bb f3 81 02
       -0.11917904 -0.052160017 0.18357944 1.909474e-37
0002a0 dd c0 c0 bd 14 2a b9 02 78 66 9e 02 94 9c a8 be
       -0.09411786 2.7207459e-37 2.3274828e-37 -0.3293196
0002b0 0e 43 8e 82 82 86 90 82 c5 68 88 bd c9 7d b6 82
       -2.0903512e-37 -2.1236102e-37 -0.06660608 -2.6814694e-37
0002c0 bf bd 07 bd 2c 01 4b 3e 73 4b 45 3d 82 5a b6 02
       -0.03313994 0.19824666 0.048167657 2.6794445e-37
0002d0 e7 35 c5 3d 25 84 a4 02 9c 88 59 02 62 f4 b5 bd
       0.09629422 2.4173481e-37 1.5981847e-37 -0.08884503
0002e0 ff b8 d1 ba 31 60 c7 bd b3 bb 85 02 9c 80 b7 02
       -0.0016000568 -0.09735144 1.9650328e-37 2.6963251e-37
0002f0 2d a8 b0 82 6e 61 74 02 28 23 69 3d 4a 8d 76 bd
       -2.5957404e-37 1.795425e-37 0.056918293 -0.060193338
000300 76 98 88 3d d9 24 a4 82 e8 86 be 02 aa 1f 38 03
       0.066697046 -2.4118784e-37 2.7995423e-37 5.410909e-37
000310 7e 40 73 3e 2c b7 ad 02 e1 5a b3 02 52 31 25 bd
       0.2375507 2.55252e-37 2.6353848e-37 -0.04033024
000320 03 75 2e bd e6 eb f9 be 8c f3 0b be 17 72 f5 3c
       -0.04259206 -0.4881279 -0.13667125 0.029961629
000330 f7 e6 01 3e 51 2a 21 3e 5a 0a 93 3d 14 95 5a be
       0.12685762 0.15738799 0.07179709 -0.21345931
000340 47 3f 90 3d e3 d1 53 bd f9 ce ab 82 04 b0 a4 bc
       0.07043319 -0.051713835 -2.5244988e-37 -0.020103462
000350 ea a4 a4 82 db f0 48 bb 0f 5d 6e ba 81 13 de 3c
       -2.419229e-37 -0.003066114 -0.00090928463 0.02710891
000360 93 bf 86 be c8 d0 3f 3c ed 38 56 be 20 e0 a0 02
       -0.26318035 0.011707492 -0.20920153 2.3638528e-37
000370 47 30 af 82 9a fa 89 3e a5 0a 1b be a6 02 ad 02
       -2.5741649e-37 0.26949006 -0.1514078 2.5421585e-37
000380 50 f9 33 be 72 d1 a2 02 0e 70 11 bc 6b f2 87 bd
       -0.17575574 2.3923976e-37 -0.008876814 -0.066380344
000390 86 a5 6a 3e 76 77 e9 bc 72 a8 d0 be f1 f0 0e be
       0.22914705 -0.028499346 -0.40753514 -0.139591
0003a0 8b bb a5 3e 80 85 ab 02 88 fe b9 82 a5 e8 e7 bc
       0.32369646 2.5202817e-37 -2.73294e-37 -0.028309176
0003b0 b9 f8 a0 82 a4 c9 1d 3e 4c be bb 02 fa 37 7e be
       -2.3652647e-37 0.15408951 2.7586406e-37 -0.24826041
0003c0 db 78 3b bf 8b 9e 29 be 34 4c 2f 3c 81 61 eb 3d
       -0.73231286 -0.16564386 0.010699321 0.11493207
0003d0 87 77 b9 bd ac 7a a2 82 d6 84 05 03 d7 aa 85 3e
       -0.09056001 -2.387417e-37 3.9237675e-37 0.26106903
0003e0 80 3d 20 3e a4 e5 9f bd 5b f7 16 02 a4 a6 4a bf
       0.1564846 -0.07807472 1.1091247e-37 -0.79160523
0003f0 9c 1b b9 82 8a dc c1 02 a4 3f 49 3c 13 e3 2a bb
       -2.7199154e-37 2.8485384e-37 0.0122832395 -0.0026075288

fc2.bias f4 [64]
000000 de 75 ab 82 16 34 2c be 02 56 55 be 34 25 ab 3d
       -2.5193844e-37 -0.16816744 -0.2083359 0.08356705
000010 b0 b3 b2 82 bd cf aa 82 79 62 ae 82 eb 0a 7f be
       -2.6257885e-37 -2.509849e-37 -2.5623523e-37 -0.24906509
000020 3d 5d 65 bf 31 60 9d be 31 48 a6 82 90 e5 aa 82
       -0.89595395 -0.3073745 -2.4432944e-37 -2.5111017e-37
000030 09 71 88 94 fc f1 ad 82 c4 08 0f be 34 6f 1d 3f
       -1.3777075e-26 -2.5558958e-37 -0.13968188 0.6149781
000040 46 6f b3 82 97 79 35 3e 8e de 9e 82 fb 37 b8 82
       -2.6365554e-37 0.17722164 -2.3343754e-37 -2.7068501e-37
000050 43 ba a6 be d8 0d 1c be 9c ef e1 3e 6e b0 ab 82
       -0.3256398 -0.15239656 0.4412812 -2.5227457e-37
000060 3b ca 84 bd ff 85 88 bd 8c 85 64 3e e0 08 b4 82
       -0.06483885 -0.06666183 0.22316569 -2.6453717e-37
000070 6e 6e 8c be 63 91 9f 82 c1 00 be 82 b8 d5 b1 82
       -0.27428 -2.3446398e-37 -2.7918424e-37 -2.613048e-37
000080 c8 88 be 82 6e 5c 34 be 58 b4 90 be b2 b5 b1 bd
       -2.79965e-37 -0.17613384 -0.2826259 -0.08677234
000090 cf a2 16 bf fa 81 3b be a0 18 e1 3d 14 da b5 82
       -0.58842176 -0.18311301 0.10991025 -2.672073e-37
0000a0 38 8a 2a 3f eb 39 a8 82 91 35 e7 3e 29 84 f9 3e
       0.66617155 -2.4718625e-37 0.45158055 0.48733643
0000b0 a4 82 e0 bc 8d f2 c2 82 c7 00 76 be 40 39 3c 3e
       -0.027406044 -2.8644955e-37 -0.24023734 0.18381214
0000c0 8a 3c 72 3e 7b 4b 99 3d 2f 90 07 3d c7 74 87 bd
       0.23655906 0.074851 0.03309649 -0.066140704
0000d0 ba cb a6 82 58 bb aa 82 d6 61 11 bf 66 5d 9c 82
       -2.450844e-37 -2.5086785e-37 -0.5678991 -2.2975748e-37
0000e0 d6 f9 2f be 53 48 8f 3e bf a8 ad 82 66 b7 61 3e
       -0.17185149 0.27984866 -2.551692e-37 0.22042617
0000f0 82 dc 0d be fe c7 9a bd 73 ab 91 3d 63 8b 94 82
       -0.13853648 -0.07557677 0.071127795 -2.182665e-37

fc3.weight f4 [64, 64]
000000 ac 33 9e 82 53 64 21 bd 7a 5e 1e bd 61 06 a4 3c
       -2.3245672e-37 -0.039402317 -0.03866432 0.020022573
000010 67 c7 28 02 c2 5e 98 82 f4 7c d8 81 d7 3f 3f bd
       1.2399916e-37 -2.238878e-37 -7.952517e-38 -0.04669174
000020 1c 32 af bc 05 f1 98 02 ce a7 d4 82 33 d3 aa 02
       -0.021386199 2.247273e-37 -3.1246915e-37 2.5100477e-37
000030 42 83 ab 82 c0 d0 b0 82 78 dc 5f 03 2f b5 27 bc
       -2.520153e-37 -2.5980692e-37 6.5786896e-37 -0.010236069
000040 58 f3 b6 02 4d 31 85 3b a7 30 3e 03 6c f6 4b 03
       2.688217e-37 0.004064715 5.589183e-37 5.9939217e-37
000050 33 74 0c bd 59 66 21 bd c5 6b f2 bc 98 78 6d 80
       -0.034290504 -0.039404247 -0.029592404 -1.005333e-38
000060 64 98 98 3d d2 03 a6 bc a0 a3 b1 bc 82 c3 a5 82
       0.07450941 -0.020265494 -0.021684468 -2.4356787e-37
000070 e6 49 76 bd 67 df b1 82 6e 62 09 82 88 ba ac 01
       -0.06012907 -2.613604e-37 -1.0093418e-37 6.345048e-38
000080 e6 79 81 02 44 28 bc bb a2 f3 97 bc 2f d9 32 bd
       1.9024813e-37 -0.0057421047 -0.01854879 -0.043664154
000090 e1 90 a1 bc 1a 12 92 3c b8 e2 b6 bc e1 7c 8d 02
       -0.019722404 0.017830897 -0.022324905 2.0789765e-37
0000a0 a8 74 a5 bd 0e a6 e7 02 5a db 87 3c b7 24 9e bc
       -0.08078891 3.403771e-37 0.016584087 -0.019304616
0000b0 84 43 60 3d 72 1d b1 82 b9 1d b4 bb 8c ca cf 3a
       0.054751888 -2.6024713e-37 -0.0054967073 0.001585321
0000c0 e6 92 88 bd 4d 0a a2 bc 3b a3 34 bc f4 96 5f bd
       -0.06668644 -0.019780302 -0.011025245 -0.05458732
0000d0 da ad b0 82 72 ac d3 02 aa 55 09 bd 76 df ac 82
       -2.5960662e-37 3.1102642e-37 -0.03352896 -2.5401389e-37
0000e0 3f bc db bb 1f 5d 88 bc 8c a9 7e 01 ac 2b 08 bd
       -0.0067057903 -0.016645966 4.6774076e-38 -0.033244774
0000f0 b2 0f 92 3c de ff 66 3c c0 bd 51 b9 23 61 a0 82
       0.01782975 0.014099089 -0.0002000248 -2.356564e-37
000100 7e b4 ad 02 cf 92 cc 3d b8 b2 89 bd f2 94 ea bf
       2.5523663e-37 0.09988939 -0.06723541 -1.8326705
000110 f7 8c b0 82 28 ba a6 02 3c a0 b2 02 f4 34 1c be
       -2.5941786e-37 2.4498356e-37 2.624672e-37 -0.15254575
000120 40 78 0f 3a 0f a9 83 3b 22 52 60 83 b6 b7 97 82
       0.0005472936 0.004017956 -6.5921967e-37 -2.22929e-37
000130 23 1d 01 24 f6 e8 ad 02 c5 f2 5f 3e 56 8c 24 bd
       2.7997096e-17 2.5553778e-37 0.21869953 -0.040172897
000140 b7 d0 b1 82 e1 18 54 3e 22 f1 ba 82 8c 0c ac 02
       -2.612761e-37 0.20712616 -2.7468647e-37 2.528033e-37
000150 da fb 96 3d 7e cd 27 bd 21 5f 9d bc 06 44 b8 82
       0.073722556 -0.040967457 -0.0192104 -2.7075414e-37
000160 4c 25 ae 82 8f 0b 9e 3c 46 99 cf bd 78 0d 9f 82
       -2.558841e-37 0.019292621 -0.101366565 -2.337068e-37
000170 30 5d 5e bd ee b2 34 82 bb 58 cd 82 5b a8 b7 82
       -0.05428809 -1.3275662e-37 -3.0172972e-37 -2.6986065e-37
000180 36 a2 a5 02 b1 3a f5 bd 31 37 79 bd 26 4c ce bb
       2.4337675e-37 -0.11974085 -0.06084365 -0.0062956987
000190 8f b1 20 3e e9 63 85 bd b3 d4 9e bc b3 59 a1 02
       0.15692733 -0.06513197 -0.019388532 2.3708309e-37
0001a0 eb c7 8c 3e 2e 72 ae 82 5b ad 6b bd fc 71 0c 3e
       0.27496275 -2.5632538e-37 -0.05753837 0.13715357
0001b0 b4 c9 8d 3c 9f ec a8 02 21 4b ac bc 5a c5 ab 3e
       0.017308094 2.4821195e-37 -0.021031918 0.33549005
0001c0 8f a9 b7 3d 88 25 39 3e 7b 6a 89 3c 54 2a 28 3c
       0.089678876 0.18080723 0.016774407 0.010263998
0001d0 8b 47 9d 82 7b 06 ba 82 43 4e 24 3c 69 78 cd 02
       -2.311014e-37 -2.7333963e-37 0.010028425 3.0191155e-37
0001e0 b3 9f 23 be a1 71 bb bd f4 3d ba 02 a5 a3 e6 bd
       -0.15978889 -0.09152532 2.7365803e-37 -0.112616815
0001f0 4c 92 95 be 29 f0 93 3d a8 79 dd bf 4b f2 c3 82
       -0.29213178 0.07223541 -1.7302752 -2.8791744e-37
000200 8e cf ae 82 e0 98 8c 82 68 02 06 03 68 7d d8 82
       -2.5686133e-37 -2.0658897e-37 3.9381823e-37 -3.1810327e-37
000210 c4 16 12 81 14 f0 1c 81 d2 07 a1 82 9b 1b b0 82
       -2.6832298e-38 -2.8824922e-38 -2.3661312e-37 -2.587672e-37
000220 6f 32 ac 82 14 dc 3e 82 57 b3 06 02 40 46 43 03
       -2.5302076e-37 -1.4022155e-37 9.896233e-38 5.7385993e-37
000230 4a d4 ae 02 f9 32 63 83 87 39 23 03 b1 66 ac 82
       2.568885e-37 -6.676782e-37 4.7967433e-37 -2.533207e-37
000240 c5 8a bc 02 1a ab 87 82 6e 6c 0f 03 91 99 93 01
       2.7703767e-37 -1.9934675e-37 4.2148394e-37 5.421963e-38
000250 6b 8d 9b 82 bb df aa 82 1f 6d 9d 82 37 4d 84 82
       -2.2856373e-37 -2.510767e-37 -2.313171e-37 -1.9439976e-37
000260 c0 e8 b7 82 6d ff 71 02 0e 15 36 02 c0 a6 b4 82
       -2.7023025e-37 1.7779187e-37 1.3377291e-37 -2.6544333e-37
000270 10 60 82 81 c0 e1 23 01 46 8e 4e 83 38 a2 90 82
       -4.78923e-38 3.010034e-38 -6.070128e-37 -2.1252007e-37
000280 be a3 12 83 a0 9c 5f 02 90 73 2c 03 d8 26 f6 81
       -4.309351e-37 1.6428402e-37 5.0678916e-37 -9.0421866e-38
000290 3e b0 9d 82 ec 67 c1 82 d5 37 af 02 8d 23 cc 82
       -2.3170235e-37 -2.841845e-37 2.5745985e-37 -2.999551e-37
0002a0 66 38 ab 82 ae 32 3b 03 14 e8 57 83 78 2f a8 82
       -2.5158563e-37 5.501254e-37 -6.3449234e-37 -2.4712627e-37
0002b0 bd 7c 64 02 12 c2 a6 82 ce b1 5a 03 3a 0b 5c 02
       1.6786593e-37 -2.4502899e-37 6.426855e-37 1.6166269e-37
0002c0 3c 61 97 82 36 34 a7 82 4d 12 e3 81 de 5d e1 82
       -2.2243266e-37 -2.4568412e-37 -8.341289e-38 -3.3114656e-37
0002d0 38 6f c5 82 f6 9d 3d 02 e2 79 b4 82 18 23 01 81
       -2.9010385e-37 1.393086e-37 -2.651858e-37 -2.3718737e-38
0002e0 3a 82 8a 82 fb aa 9b 82 54 c7 df 81 ba cb f5 02
       -2.0352024e-37 -2.287334e-37 -8.2203284e-38 3.6116448e-37
0002f0 bd 8c 44 03 82 64 98 82 89 ed 1e 83 38 10 20 83
       5.7760783e-37 -2.2392081e-37 -4.6704704e-37 -4.7038392e-37
000300 6d 1a ae 82 c4 08 d7 ba 1b 86 d5 bd db be d3 bd
       -2.558217e-37 -0.0016405811 -0.10425969 -0.10339137
000310 32 36 a1 02 45 10 47 03 2e c4 14 03 47 a9 73 3e
       2.368793e-37 5.849952e-37 4.3718494e-37 0.23795043
000320 be 86 98 82 8e cf a7 3e ac 6e 9f 82 0f ff ac 82
       -2.241173e-37 0.3277554 -2.3426473e-37 -2.5419525e-37
000330 e0 49 24 02 3f bb b0 02 d6 25 29 3d 52 73 b7 bd
       1.2070018e-37 2.596835e-37 0.04129585 -0.089575425
000340 26 a1 a0 82 86 9b 1c bf 36 40 a2 82 ee 70 d2 82
       -2.3602382e-37 -0.6117481 -2.3840616e-37 -3.0921545e-37
000350 d8 aa 83 af 98 f3 17 bf 6f 67 44 3e dc 84 d4 82
       -2.3950153e-10 -0.5935607 0.19180082 -3.1226858e-37
000360 be e7 b1 ba 07 a1 44 be 27 d1 89 bd 94 d7 af 02
       -0.0013573093 -0.19202052 -0.06729346 2.5837675e-37
000370 a6 07 a5 3c 7f dc e8 02 40 ef b3 82 b4 9e c1 82
       0.020145249 3.4215895e-37 -2.6439009e-37 -2.8449892e-37
000380 71 5a ff 82 fc fa 0e 3c 57 21 2e 3e 41 c1 19 be
       -3.7520793e-37 0.0087268315 0.17004906 -0.15015127
000390 9e 7c c5 be 8a 9d c4 bb 93 2b 1b be 74 88 a9 82
       -0.38571638 -0.0060002254 -0.15153341 -2.4910638e-37
0003a0 ad e7 9f 3d 5d f1 a7 82 9b 85 2f bf 4d 48 cb 3c
       0.078078605 -2.467698e-37 -0.6856324 0.02481475
0003b0 2e e6 ce bc 07 9d b4 82 3f 88 d0 3d c7 20 12 be
       -0.025256243 -2.6538752e-37 0.10182237 -0.14270316
0003c0 27 3a 59 3d cb 57 2d bb c6 dc d9 bd a2 dd 3a bd
       0.053033974 -0.0026450034 -0.10637812 -0.04562152
0003d0 b5 84 6d 02 1e 75 21 03 d2 f7 c1 02 ae d5 b3 82
       1.7450095e-37 4.744809e-37 2.8501043e-37 -2.6424332e-37
0003e0 61 dd 01 38 09 47 30 3e cd 59 ae 02 3d d4 54 be
       3.0962172e-05 0.17214598 2.5618545e-37 -0.20784087
0003f0 61 51 58 3e 40 6f 89 bd 18 8d 0a 3e 99 9c a7 02
       0.21124794 -0.067106724 0.13530385 2.4628327e-37

fc3.bias f4 [64]
000000 7f 67 9e bd ea 85 9d 3e c0 c0 a1 82 c7 fd f9 3d
       -0.07734584 0.3076623 -2.3767457e-37 0.12206607
000010 aa db 9f bd b1 c9 ad 82 ec a4 9c bd fe 86 88 3e
       -0.078055695 -2.553583e-37 -0.07648644 0.2666549
000020 9a 2b ae 82 38 58 85 3c 08 90 ba 82 87 d0 b3 82
       -2.5592028e-37 0.016277418 -2.7412914e-37 -2.6421375e-37
000030 4d 02 82 bd eb 35 97 3e 78 0b fa 3c aa ec 1a 3f
       -0.06348095 0.29533324 0.030523047 0.6051737
000040 41 99 6c bc 4d e9 5b bd 0a 6f fe 3d 28 37 33 bf
       -0.014440835 -0.05368929 0.12423523 -0.70006037
000050 5f 62 dc bd 4b d7 af 82 c1 5b 35 3e cd e1 99 be
       -0.1076095 -2.583751e-37 0.17710783 -0.30055085
000060 24 93 43 3c da 1b a4 82 9d 93 73 bc 57 e6 c6 bd
       0.0119369365 -2.411362e-37 -0.014866737 -0.097119026
000070 f1 72 c9 3e 23 be 09 3f c8 c4 d6 bd 44 d4 19 3e
       0.39345506 0.5380575 -0.10486752 0.15022379
000080 da b4 6e 3e 55 9c af 82 4d 8b c2 82 8d 15 a9 3e
       0.23311177 -2.580367e-37 -2.8585693e-37 0.33024254
000090 8f 94 4d bd dc 89 71 3d 2b ce 46 3e 21 52 8d b9
       -0.050190505 0.058969364 0.19414584 -0.00026954807
0000a0 6a f1 9d 82 fe 2f a5 82 2d 39 c5 bd 61 e4 29 bd
       -2.3207642e-37 -2.4272117e-37 -0.09630046 -0.041477565
0000b0 d8 86 b8 82 cc 1d 9e 82 99 22 c0 bb 73 de 46 3e
       -2.7113767e-37 -2.3233116e-37 -0.0058634994 0.19420795
0000c0 59 36 9a 3d 58 8c 36 3d dd 20 ac 82 06 23 c0 82
       0.07529897 0.044567436 -2.5291991e-37 -2.8231967e-37
0000d0 e6 7c 9e 82 1c ec b2 bd 31 73 bb bc 88 13 76 3d
       -2.3287702e-37 -0.087364405 -0.022882076 0.06007722
0000e0 3a 27 f8 3d 98 de 56 3e 5a d2 56 3e f9 2e ac 3e
       0.12116857 0.2098335 0.2097868 0.33629587
0000f0 e3 c3 21 be 64 e1 05 3e 8c 09 2d 3e 6d 82 91 82
       -0.15797381 0.13074261 0.16898173 -2.1380696e-37

fc4.weight f4 [5, 64]
000000 4b 77 09 bd 5e c4 62 3e 24 49 af 82 1c 4d 70 be
       -0.033561032 0.2214522 -2.575592e-37 -0.23466915
000010 12 d5 7f be a7 59 b7 82 11 05 06 be c8 67 7a bd
       -0.24983624 -2.6940891e-37 -0.1308787 -0.06113413
000020 4a 63 af 82 4d 7b 63 3e 8f a6 a6 82 5a d9 ba 82
       -2.5770928e-37 0.22215004 -2.4487108e-37 -2.7454997e-37
000030 c3 2e 20 be 2e 3e 4a 3e c9 31 6e 3e 57 40 de bc
       -0.15642838 0.19750282 0.23261179 -0.027130289
000040 93 df 93 bd 83 c3 06 be 79 35 51 3e 66 13 60 3d
       -0.07220378 -0.1316052 0.20430554 0.054706
000050 bb e7 f3 3e a6 5f b7 82 ed 38 fb bc ca 5d 06 be
       0.47637734 -2.6944333e-37 -0.030666793 -0.13121715
000060 a7 a8 44 3e 6e 59 bd 82 34 cb 0b 3b ee 6b ea 3c
       0.19204961 -2.7822384e-37 0.0021330835 0.028615918
000070 e9 5c 4f bd 67 bc 00 3e 54 a5 00 be 04 ca 10 3e
       -0.050625715 0.1257187 -0.12563068 0.14139563
000080 2d b8 00 3d 0b dd cb 82 be 76 ca 02 cb 44 49 3c
       0.031425644 -2.9955042e-37 2.9749387e-37 0.012284468
000090 b0 a4 88 3d dc 48 3d 3d f1 42 74 3e 94 f8 0f 37
       0.06672037 0.046212062 0.23853661 8.581341e-06
0000a0 03 79 b3 82 19 63 c6 82 4b d8 e1 be c5 9b 9b bd
       -2.6371143e-37 -2.9150364e-37 -0.4411033 -0.0759807
0000b0 29 66 a4 82 ce e9 aa 02 75 3b 31 bc 1f 93 8b 3e
       -2.4156271e-37 2.5113452e-37 -0.010817398 0.27260682
0000c0 d1 69 3e be 05 1a 73 be 00 c2 a9 02 5a 74 b5 82
       -0.18595053 -0.23740394 2.4943669e-37 -2.6662342e-37
0000d0 d2 ad af 02 e4 4d 29 be 9a 9a ca 3c 2b d0 20 be
       2.5813707e-37 -0.16533619 0.024731923 -0.1570441
0000e0 26 25 04 be 5b ce 00 bd 9f 15 92 bd fd f4 7a 3e
       -0.12904796 -0.031446796 -0.0713303 0.24507518
0000f0 e7 bc 63 3e 4b f9 0d 3e af 89 a5 3e 5b 69 c1 02
       0.2224003 0.13864629 0.32331607 2.8419272e-37
000100 7f 00 06 bd 4e f8 2a 3d 34 22 a6 02 91 21 f2 3b
       -0.032715317 0.041740708 2.441114e-37 0.0073892553
000110 7f 92 46 be ea 7c a1 82 9d 02 64 3c fd 70 c1 bd
       -0.19391821 -2.372852e-37 0.013916639 -0.09445379
000120 d9 56 c6 02 3b 38 85 3c 52 33 a7 82 42 dc b3 82
       2.9143333e-37 0.016262164 -2.45679e-37 -2.6428108e-37
000130 36 57 d3 bb 0a 0b d5 3d b9 c2 b5 bd 67 7e 2d 3e
       -0.0064496053 0.10402496 -0.08875031 0.1694275
000140 da dd 8c 3b 8a 6c 16 3d 49 b0 b8 3c e4 6c a9 3d
       0.0042989077 0.036724605 0.022544997 0.08272722
000150 b1 32 81 bd 81 a4 a2 82 ad e5 2a 3e 90 8f ec 3d
       -0.06308497 -2.3898181e-37 0.16689177 0.1155082
000160 dc d2 f0 ba d5 b8 b8 02 d9 5c 93 bc bb 3e c3 3c
       -0.0018373388 2.7142458e-37 -0.01798861 0.023833623
000170 79 30 a7 bd eb d4 a4 3e d0 a8 d1 3d 9e 32 8c 3e
       -0.08163542 0.32193694 0.102372766 0.27382368
000180 4c 35 34 3e 8b b7 a3 82 84 bd b4 82 85 62 12 3e
       0.17598456 -2.4056046e-37 -2.65574e-37 0.14295395
000190 59 03 80 bc 3b 76 da 3d 51 b3 c9 bd 23 3f 6d b4
       -0.015626596 0.10667082 -0.09848655 -2.2095314e-07
0001a0 0d ba cb 82 96 26 bb 02 9a 16 4f bc 6e 5a 03 be
       -2.9934957e-37 2.7499328e-37 -0.012639666 -0.12827465
0001b0 f0 0c b8 02 33 63 ad 82 de 01 8e ba fe 90 7e bd
       2.7043796e-37 -2.5477003e-37 -0.0010834297 -0.062149994
0001c0 75 f1 dc 3c 2a 30 b9 bc fb 83 dc 02 2c 1c b3 02
       0.026970604 -0.022605974 3.2401848e-37 2.6317856e-37
0001d0 ac 5b b1 02 3f 20 52 3e 05 db 2d 3e 70 15 f4 bc
       2.606043e-37 0.20520113 0.1697808 -0.029795378
0001e0 53 b0 f5 b8 49 0d 94 3e 5a be 04 bc 7a 59 b2 bd
       -0.00011715353 0.28916386 -0.008102024 -0.087084725
0001f0 3f 00 59 3e 71 d0 11 bd 6f fa 6a bc 74 60 b5 82
       0.211915 -0.035599176 -0.014341935 -2.665092e-37
000200 22 74 1f bd fa 66 d7 3e 0a c6 9f 82 b4 ff 5a 3d
       -0.038929112 0.42070752 -2.347662e-37 0.053466514
000210 c6 61 1a 3e 0f 6d a6 82 cd c3 84 bd 1f b6 29 3d
       0.1507636 -2.4454104e-37 -0.064826585 0.04143345
000220 ad a5 cd 02 ef 88 f1 3b c8 de b4 82 d1 78 ad 82
       3.0217136e-37 0.00737106 -2.6576493e-37 -2.548941e-37
000230 a7 ce f3 bd b5 93 f9 bc 70 f6 c3 bd 5e 5d 09 3f
       -0.1190465 -0.03046594 -0.095684886 0.5365809
000240 3f eb 2a 3b 07 cb bd bc b8 3a 99 bc d2 03 d9 bc
       0.002608016 -0.0231681 -0.018704757 -0.02649108
000250 26 ba b2 bd f6 e6 ac 82 5d 11 36 3c 09 d1 4e 3c
       -0.08726911 -2.5405694e-37 0.011112538 0.01262308
000260 b4 16 c3 3d fa 55 bc 82 fb f5 33 bc 5c 3a c4 bb
       0.09525815 -2.7673465e-37 -0.010983939 -0.0059884023
000270 f2 72 33 bc 7a 48 fb 3e 64 09 dd 3d f3 e8 b0 bd
       -0.010952698 0.49078733 0.10792807 -0.086381815
000280 ac e0 86 3c 71 97 ab 82 16 8e ba 02 18 c4 30 bb
       0.016464554 -2.5213115e-37 2.7411797e-37 -0.002697235
000290 65 dc 58 3d 90 f6 18 3c 45 03 79 bc 23 d7 ec b5
       0.05294456 0.009336129 -0.015198533 -1.7645983e-06
0002a0 ba 59 c2 82 b9 60 ad 02 01 c1 ba bd 15 f7 e7 3c
       -2.8557239e-37 2.5475581e-37 -0.09118844 0.02831606
0002b0 71 e8 b3 82 db 0b af 82 ee 25 bb 39 1d 3b a3 bc
       -2.64351e-37 -2.5720744e-37 0.0003569568 -0.019925648
0002c0 25 d6 9a 3c ef 75 ed 3c c2 89 ab 02 2d ba ac 02
       0.01890094 0.0289869 2.520526e-37 2.5379988e-37
0002d0 dd fe ba 82 8b 18 a2 3d bb bc 12 bd b6 62 a7 3c
       -2.7476528e-37 0.079148374 -0.03582452 0.020432811
0002e0 b6 59 a9 3c 4c 85 e7 3c 53 57 b9 3c 72 50 92 3e
       0.02067266 0.028261803 0.022624647 0.28577
0002f0 72 da ba bd 80 77 c3 3d 04 c3 4e bc 9c 40 b7 02
       -0.091236964 0.09544277 -0.012619738 2.6926517e-37
000300 74 27 99 bc e6 8f 84 3c 3e 5a bb 02 b1 b3 bb bc
       -0.01869557 0.016181897 2.7528977e-37 -0.022912832
000310 c1 a4 68 bc a4 61 c4 02 14 ad 1d 3d 25 e0 da be
       -0.014199437 2.8855655e-37 0.03849514 -0.42749134
000320 fe d1 ca 02 97 f1 23 bc 96 68 a9 82 77 78 b6 02
       2.9801762e-37 -0.01000633 -2.4892348e-37 2.681164e-37
000330 03 42 c6 bd 35 73 73 be d5 3f 31 3d be 28 7a 3d
       -0.096805595 -0.23774417 0.043273766 0.06107401
000340 6b 73 12 bf 26 b1 ff be 22 68 4b bd b6 95 2d bf
       -0.57207364 -0.4993984 -0.049659856 -0.67806566
000350 dd d5 4f bd c0 c4 af 82 95 f6 d3 3d 63 78 af bd
       -0.050741065 -2.5826868e-37 0.10349766 -0.08567884
000360 a6 14 d9 bc 7b 88 bb 02 dc 7b 88 bb c5 46 bb 3e
       -0.026499104 2.7555516e-37 -0.004165156 0.3657743
000370 0b 55 a5 3e 5b 4d 45 3d a7 18 35 3e 31 70 d1 be
       0.32291445 0.048169475 0.17685185 -0.40905908
000380 3c 2a 4d 3e 20 07 af 02 a5 37 ca 02 4a e9 43 bd
       0.20035642 2.5718028e-37 2.971317e-37 -0.047829904
000390 c3 3e 15 bc 80 b8 99 3d 9d ad 79 3e 8b 25 c9 b8
       -0.009109202 0.07505894 0.24382634 -9.59142e-05
0003a0 15 5c b5 02 0d 23 c4 82 3e 33 63 bd 11 cd 7b bd
       2.6648412e-37 -2.881973e-37 -0.05546879 -0.061474863
0003b0 d8 25 c1 82 de f7 a0 82 a8 d0 fc ba 57 39 8c bd
       -2.8380522e-37 -2.3652156e-37 -0.0019288259 -0.06846874
0003c0 76 fb 85 3e 3d be f9 3c cb fe b9 02 64 0c aa 02
       0.26168412 0.03048622 2.732955e-37 2.4986367e-37
0003d0 9b 41 ae 82 52 7e 76 3d 97 d7 e0 3d c1 7f 73 3e
       -2.5604658e-37 0.060179062 0.109786205 0.23779203
0003e0 db f9 33 3e d7 f6 f5 bd 8c cd 16 be a3 b6 8d bd
       0.17575781 -0.120099716 -0.14726847 -0.06919601
0003f0 45 02 39 3d 67 c2 13 bd e0 5a 4b be eb b3 be 02
       0.04516818 -0.03607407 -0.19858885 2.8021259e-37

fc4.bias f4 [5]
000000 9a df 8d 3e ce e2 c1 3d e9 a9 b5 3d f8 cd 0e 3f
       0.27709657 0.09467088 0.088702984 0.55783033
000010 fc 0d 22 3f
       0.6330259
